models/checkpoint_actor_1.pth (torch, 90531 bytes, 18 tensors)

fc1.weight f4 [128, 24]
000000 65 ea 11 3e 27 e0 4b bc 6c ae 02 bd 62 69 81 3d
       0.1424957 -0.012443579 -0.031904623 0.06318928
000010 2c b2 ad bd 47 3a e1 bc f4 a4 23 3d f7 d8 be 3d
       -0.08481249 -0.02749361 0.039952233 0.093187265
000020 4d 6f eb 3d f8 8f e1 bc 04 76 25 bd 2e c7 1b bd
       0.11495838 -0.02753447 -0.04039575 -0.03803175
000030 ba ca 74 bd 99 e6 2b bd d9 da 60 3c 53 74 8f bd
       -0.059763648 -0.041967962 0.013724052 -0.07004609
000040 34 b5 aa 3d 6a 37 ca 3d 63 c7 27 3d c7 cc 8a 3d
       0.08335343 0.09873851 0.040961634 0.067773394
000050 97 54 bc 3c a6 43 26 bd b1 4a 86 3c 45 01 84 bc
       0.022989554 -0.04059186 0.016393038 -0.016113887
000060 47 be d2 bd 43 37 3e bc 7d 4e 67 3b b6 a8 40 3c
       -0.10290199 -0.011609855 0.0035294585 0.011758974
000070 5c 64 6e 3d eb d3 32 3e b4 ed 75 bc 7d 71 b4 3c
       0.05820118 0.17463653 -0.015010286 0.022026772
000080 eb f5 ae bd eb 13 8e bd 77 5a bc bb 73 db 09 be
       -0.08542999 -0.06937393 -0.005748089 -0.1346262
000090 06 98 3f 3d 05 10 b6 3d 82 61 a2 bc 8b 60 75 3c
       0.04677584 0.08889774 -0.019821886 0.014976631
0000a0 a4 ef 88 bc 54 31 67 bd 60 b8 52 bd 05 ac c3 bd
       -0.016715832 -0.056443527 -0.051445365 -0.095542945
0000b0 8e 20 bf 3d b7 0b 2c 3e 65 08 0e bd ff 74 0c bd
       0.09332381 0.16801344 -0.034675974 -0.034291264
0000c0 87 a4 0b bd b7 de 14 be 75 31 cb 3c a4 df a9 3c
       -0.034092452 -0.14538084 0.024803856 0.020736523
0000d0 bf d1 74 bc ba 95 ab bd ce c8 fd bc 14 68 9c 3d
       -0.0149425855 -0.083781675 -0.03097954 0.07637039
0000e0 f9 c1 17 bd 36 e8 25 be 48 a3 e7 3c d3 ae 86 3d
       -0.03705022 -0.16201863 0.0282761 0.06576314
0000f0 57 f6 35 3d 05 5c 95 3d a8 09 ad 3c 6b 25 a1 bc
       0.04442438 0.07292942 0.021122769 -0.019671163
000100 f3 0a c5 3c 14 b7 78 bd da 92 2e 3d a5 a7 29 bd
       0.024053073 -0.060721472 0.042620517 -0.041419644
000110 f6 00 9f 3d 45 9c 0e 3e 97 8f 2f bd 52 22 3c 3d
       0.07763855 0.139268 -0.042861547 0.045931168
000120 2b 3b 07 bc 2d f5 3e bd 2c dd fa 3c 61 09 4a bd
       -0.008253853 -0.046620537 0.030623041 -0.04932535
000130 47 59 b3 3d eb ba c6 bc 42 82 f8 bc 02 6f 11 3c
       0.08757263 -0.024259051 -0.03033555 0.008876564
000140 6a c3 9e 3d 24 20 25 bc 70 4d 50 3c 3e b5 be bc
       0.07752116 -0.010078464 0.012713775 -0.023279782
000150 50 f9 21 3c 15 7a 41 bd 79 44 2e bc 23 c7 14 3d
       0.009886101 -0.047235567 -0.010636442 0.036322724
000160 dc 88 82 bb 07 ee e5 bd cf f5 f0 bc 59 05 85 bd
       -0.0039836 -0.11227041 -0.029414086 -0.064951606
000170 03 18 67 be b8 0a 33 bd 0a fa 0a 3d 45 d9 17 3d
       -0.22567753 -0.043711394 0.033929862 0.03707244
000180 1f 19 1f be e7 27 04 be 54 3c c0 3c 19 1b 14 bc
       -0.15536927 -0.12905847 0.023466267 -0.009039664
000190 e8 bb 6b bc df a1 0d 3c 1c 08 cb 3c 9e b9 18 3b
       -0.014388062 0.00864455 0.02478414 0.0023303996
0001a0 b5 b0 2f bd 49 2f 57 be 18 9a 2c bd ce 68 be 3d
       -0.04289313 -0.21014132 -0.042139143 0.09297334
0001b0 53 38 20 3c e2 65 04 3e c8 de 44 bd 96 7e 90 bc
       0.009779054 0.1292949 -0.048064023 -0.017638486
0001c0 90 7e 06 be c5 d6 23 bd e2 d9 dd bc 9f 4a bc 3d
       -0.13134217 -0.039999742 -0.027081434 0.0919392
0001d0 e7 d0 6c 3d a3 8c 8c 3d 93 49 ac bc fd c4 d8 bb
       0.057816412 0.06862762 -0.021031177 -0.0066152797
0001e0 6e 61 fe 3b 30 64 85 3d 9f 39 e3 bc a3 b0 bc bd
       0.0077630794 0.0651325 -0.027737437 -0.09213378
0001f0 76 46 16 3d c9 0c 03 bd cc 1b 33 3d 4a b7 be bc
       0.03668829 -0.031994615 0.04372768 -0.023280758
000200 c5 de 82 bd 74 a0 25 3c fd 00 45 bc 1c 8d 63 3d
       -0.06390146 0.010109056 -0.012024161 0.055554494
000210 bd c1 fc 3d ab 8e 33 bd 60 92 ef bb ca 0c 89 3b
       0.1234164 -0.04383723 -0.0073111504 0.004182433
000220 84 31 2b 3d 33 2c 2d bd cd 8d e4 bc 7b cd 3d be
       0.04179527 -0.04227848 -0.027899647 -0.18535416
000230 43 26 50 bc 0c 58 a8 bd ce 05 13 3c 4f 81 3c be
       -0.012704435 -0.082199186 0.008973552 -0.18408702
000240 48 f0 2f 3d cc d5 c2 bd d5 e7 8c 3d 6d bd 0f bd
       0.04295376 -0.09513435 0.06880156 -0.03509276
000250 95 61 14 be 0c 60 07 be 68 d1 87 bd 6c b4 44 bc
       -0.1449035 -0.13220233 -0.06631738 -0.012005907
000260 17 c8 90 3d b6 10 06 be 8b d4 49 bd ca 82 1e 3d
       0.07069414 -0.13092312 -0.049274962 0.03869895
000270 f3 b1 f5 3c 55 27 95 3d 92 3a 7a 3d 28 21 78 3d
       0.02999208 0.072828926 0.061091013 0.060578495
000280 c5 44 5e 3b ab 51 6a bd 86 60 63 bd a5 ca 02 3d
       0.0033915502 -0.05720679 -0.055511974 0.031931538
000290 29 ce 2b 3d eb 7d 0d bc 01 92 19 3d 54 bb 38 bc
       0.041944657 -0.008635978 0.037492756 -0.011275131
0002a0 42 21 88 3d 6d c9 40 3e f9 3b 13 bb 18 b3 4e bd
       0.066469684 0.18826838 -0.0022466166 -0.050463766
0002b0 7f db cf 3d d9 6c ea bc 21 7c 51 ba ba 40 de bd
       0.101492874 -0.028616356 -0.0007991214 -0.10852189
0002c0 8e 89 71 3d 0c 37 e1 3d c3 52 4e bc 06 c6 d2 bd
       0.058969073 0.109968275 -0.012592974 -0.10291676
0002d0 a5 2c 18 3d 40 f6 a7 3d 17 7b fd 3c 04 cb c7 bd
       0.03715195 0.08201265 0.030942483 -0.09755519
0002e0 92 7f 6c bd bf 61 08 3d 98 41 ad 3b db 24 5f bb
       -0.057738848 0.033296343 0.0052873604 -0.0034049067
0002f0 7b 01 d2 3d cf 95 36 3d a1 78 aa 3c 9b 04 cd 3b
       0.102541886 0.044576462 0.020809473 0.0062566525
000300 53 62 86 3d 9f 25 20 bd 90 8b 6e 3d 46 3a 3e bc
       0.065617226 -0.03909838 0.058238566 -0.011610573
000310 db d3 96 bd 76 99 e5 bd 61 a1 7a bd 4a 4e 90 3d
       -0.07364627 -0.11210911 -0.06118906 0.070461825
000320 87 b2 cb 3d 80 b5 0f 3c 29 58 0e bd 57 92 61 3c
       0.09946161 0.0087713 -0.034752045 0.0137678
000330 08 7e 57 3d 01 97 00 be 32 5a 6f 3d d4 13 aa 3d
       0.052610427 -0.12557603 0.058435626 0.08304563
000340 3b cd 3e 3b 3c 8f 1e 3c 2c 20 51 3d 4b 99 02 3d
       0.0029114026 0.009677704 0.051056072 0.031884473
000350 15 9c 33 3c b1 1d fa bd c0 65 b8 bc af 7f 0c bd
       0.010962506 -0.122126944 -0.022509456 -0.034301456
000360 71 fe f1 3d dd bd 43 bc 91 4d 5b 3d 58 a1 cc bd
       0.11816109 -0.011947122 0.05354077 -0.099917114
000370 5c e1 00 be 9d a4 43 bd fa c2 f8 3c 3f 90 34 3d
       -0.12585968 -0.04776441 0.03036641 0.044082876
000380 a1 19 61 3d 09 b2 6a bc 89 2e 0b 3c db ee aa 3d
       0.054956082 -0.014324673 0.008494982 0.08346339
000390 26 1b fd bd 80 6c ed bd d3 78 e1 3c 3b 7e 6a 3b
       -0.12358694 -0.1159296 0.027523434 0.0035780806
0003a0 4c d4 24 3c 8f 6d c5 bd 12 e4 11 bd a4 b2 0b bd
       0.010060381 -0.09640037 -0.035617895 -0.03410591
0003b0 73 8b 3f bd 9c 2a 01 be f9 ad c0 3d 7b f7 aa bc
       -0.04676385 -0.1261391 0.09408183 -0.020869961
0003c0 bc ca dd 3d 7b 2e 12 be e7 66 36 3a 01 6b 49 bd
       0.10829684 -0.14275543 0.00069580827 -0.049174313
0003d0 11 09 e1 bd e1 bd 4f 3d 99 e4 ed bb 1a 94 10 be
       -0.109880574 0.050718192 -0.007259917 -0.14118996
0003e0 7d d4 d0 3d b2 2d e5 bd d5 e7 a3 bc ac 35 04 3d
       0.10196779 -0.11190356 -0.020008007 0.032277748
0003f0 33 26 14 be 76 92 ad 3d 14 79 62 bc ea 06 e0 3b
       -0.14467697 0.08475201 -0.013822813 0.0068367617

fc1.bias f4 [128]
000000 2b 8b 52 bd 2b b4 96 3c 89 da 5f bd f6 b5 4c be
       -0.051402252 0.018396458 -0.05465177 -0.19991288
000010 9b 54 ad bc 65 0b cc 3d ea 29 c3 bc 16 ce cd bd
       -0.021158507 0.09963111 -0.023823697 -0.100490734
000020 be 7a d7 3b d7 79 18 3d 6e 65 69 bd 87 23 22 be
       0.0065759113 0.03722557 -0.056981497 -0.15833865
000030 91 0d e0 bd 96 2e 08 bd 7a 76 96 3d d1 df 39 3e
       -0.109400876 -0.033247553 0.07346816 0.18151785
000040 b0 13 81 3b 5c b6 95 3d d7 9c f0 3d 34 6e b6 bd
       0.0039391145 0.07310173 0.11748665 -0.08907738
000050 41 9b 8a bd dc a9 0a 3e 60 b4 15 3e a5 d2 45 3d
       -0.067678936 0.13541359 0.14619589 0.04829659
000060 39 9c 21 be e7 31 ed 3d f2 f0 2c be 2d 11 d1 3d
       -0.1578225 0.11581784 -0.16888788 0.10208354
000070 c2 6e c7 3c ea a8 86 3d fb bb 4b be d7 fd 92 bd
       0.024344806 0.065751866 -0.19895928 -0.07177322
000080 81 9b b1 3d 49 d3 20 3e 57 5f 6f bd 27 65 3a 3e
       0.08672238 0.15705599 -0.058440533 0.18202649
000090 37 a4 3a bd c7 2e fc bd 9a e2 b4 bd ba 37 51 3c
       -0.045566764 -0.123136096 -0.08832283 0.012769634
0000a0 ba 32 13 bd 62 59 ca 3d 40 4d e7 bd c6 d7 6d bd
       -0.03593705 0.0988033 -0.11294031 -0.058067106
0000b0 74 23 4f be 07 95 2a 3e 33 4d 1d bd 95 c8 24 be
       -0.20228368 0.16658412 -0.0384037 -0.16092141
0000c0 f5 7e 21 bc 5c e0 c6 b9 63 09 68 3d 03 e7 b7 bc
       -0.009856929 -0.00037932664 0.056649577 -0.022449022
0000d0 fc 8c 03 3e 18 45 90 bd a8 5b 7a bd cf 92 46 bd
       0.1284675 -0.070444286 -0.061122566 -0.04847985
0000e0 20 1c 15 3d 76 88 27 3e c5 08 1a bc 71 ea 20 3e
       0.036403775 0.1636065 -0.009401505 0.15714432
0000f0 38 30 24 3e 5c b0 d9 bd d3 8a 92 bc 09 47 c5 bd
       0.16034019 -0.10629341 -0.017888462 -0.096326895
000100 e8 c2 ad 3d e2 e1 92 bd d9 fa 7e 3d 8e 8c 48 3c
       0.08484441 -0.0717199 0.062250946 0.012240542
000110 52 21 09 be 5d 84 0c be 4f 13 4c be 01 e6 e9 bd
       -0.13391617 -0.13722368 -0.1992924 -0.11420823
000120 4f c1 69 3d d0 88 4b 3c 4c 32 1d 3e 3d d2 37 be
       0.05706912 0.012422755 0.15351218 -0.17951293
000130 86 dc bc bb 98 5f 3b be 8b 8f 9f 3a d6 44 98 3d
       -0.005763593 -0.18298185 0.0012173516 0.074350044
000140 97 84 3b be c7 86 38 3e 36 e1 81 bd 5e 38 39 3e
       -0.18312298 0.18020163 -0.06341784 0.18087909
000150 30 72 0c bd ab 34 ed 3d a1 0c 3e 3e 58 02 98 bd
       -0.034288585 0.11582311 0.18559505 -0.07422322
000160 6d 3d 4b bd ab 57 db 3d 16 e6 32 be 16 6d f7 3d
       -0.049619127 0.10710081 -0.17470583 0.12081353
000170 2c 4d 03 be 6b 3d 42 3e de f9 08 be cb 06 ac bd
       -0.12822407 0.18968742 -0.13376567 -0.08399733
000180 e6 da 1b 3e 40 e4 b5 bd a8 20 33 3e 69 cb 0f 3e
       0.15220222 -0.08881426 0.17492926 0.14042439
000190 cd 02 3f 3e d2 81 4a be 44 a7 15 3b f9 88 89 bd
       0.18653412 -0.19776085 0.0022835294 -0.067155786
0001a0 df 1e 47 3d 17 cc 1d be 64 75 ab 3d a0 a3 1e bc
       0.048613425 -0.15409885 0.08372 -0.009682566
0001b0 7a 96 c5 bd ba 05 3c be c2 8d da 3d cb 5b 97 bd
       -0.09647842 -0.1836156 0.106715694 -0.07390555
0001c0 33 3b 1a 3e 8b d8 14 3d 5c 78 7e 3d 1c 91 fd bc
       0.15061645 0.036339324 0.062126502 -0.030952983
0001d0 51 f2 e6 bc cb 89 8d bd d9 fe 34 be a4 69 03 3e
       -0.028191717 -0.069110475 -0.17675342 0.12833267
0001e0 cf 9b 03 be 01 f3 f3 3d 54 03 8d bd 37 f0 02 3e
       -0.12852405 0.11911584 -0.068854004 0.12786947
0001f0 a4 37 33 3e 61 ab ff bd 84 9b 2c 3e 00 8b a2 3b
       0.17501694 -0.1248386 0.168562 0.0049604177

bn1.weight f4 [128]
000000 c5 44 69 3f 2e ed 90 3f 7f 13 81 3f 7c 61 85 3f
       0.9112056 1.1322381 1.0084075 1.0420375
000010 dd 88 73 3f d7 83 84 3f 1e 13 77 3f 9c 59 7d 3f
       0.9513071 1.0352734 0.96513546 0.9896486
000020 d8 fd 6d 3f 45 d1 6a 3f 19 5c 85 3f c1 20 7c 3f
       0.9296546 0.9172557 1.0418731 0.9848748
000030 26 77 7a 3f 89 85 65 3f a4 cf 84 3f 0a d1 81 3f
       0.97838056 0.89656883 1.0375867 1.0141919
000040 9e c1 81 3f f9 02 85 3f f5 d8 6b 3f 87 c0 76 3f
       1.0137212 1.0391532 0.92127925 0.96387523
000050 6d 97 71 3f c2 0a 76 3f 4c a9 6b 3f 4e 4a 83 3f
       0.9437168 0.96110165 0.920552 1.0257051
000060 48 79 81 3f d2 0a 77 3f 84 31 8a 3f 5d 3e 59 3f
       1.0115137 0.96500885 1.0796361 0.84860784
000070 eb 0c 99 3f a4 b1 82 3f f4 8c 71 3f 2e 76 78 3f
       1.1957067 1.0210462 0.943557 0.9705533
000080 53 58 64 3f d2 42 73 3f 61 20 74 3f 15 06 78 3f
       0.8919727 0.95023835 0.95361906 0.9688428
000090 11 cf 7d 3f ec 65 89 3f c1 ed 8a 3f ff 4c 7f 3f
       0.99144083 1.0734229 1.0853807 0.9972686
0000a0 60 b9 91 3f 9a 15 76 3f f2 2f 6e 3f 91 52 68 3f
       1.1384697 0.9612671 0.9304191 0.90750986
0000b0 9b a4 82 3f 0a a9 7c 3f e0 0b 75 3f 72 26 87 3f
       1.0206484 0.98695433 0.95721245 1.0558608
0000c0 ba f2 76 3f 95 c5 81 3f f8 bf 72 3f 1a 18 81 3f
       0.9646412 1.0138422 0.9482417 1.008548
0000d0 e9 f2 8b 3f 1f bc 84 3f 53 88 84 3f 6d 82 74 3f
       1.0933505 1.036991 1.0354103 0.95511514
0000e0 3e 15 74 3f ba c4 75 3f e8 02 86 3f a9 f3 7d 3f
       0.95344913 0.96003306 1.0469637 0.9919992
0000f0 23 6c 73 3f 7c f8 70 3f a4 dd b0 3f 16 65 83 3f
       0.9508688 0.9412916 1.3817639 1.0265224
000100 30 33 7b 3f ed 51 81 3f b7 99 78 3f 18 76 72 3f
       0.9812498 1.0103127 0.9710955 0.94711447
000110 c8 dd 76 3f cc 99 74 3f fe cf 7a 3f 57 4a 82 3f
       0.9643216 0.95547175 0.9797362 1.0178937
000120 dc 5a 71 3f b2 f3 55 3f 20 f2 79 3f 16 67 7e 3f
       0.94279265 0.83574975 0.9763508 0.99376047
000130 c7 14 ab 3f b6 5c 6a 3f c9 29 77 3f 6e 03 6e 3f
       1.3365716 0.91547716 0.96548134 0.92973983
000140 32 aa 7c 3f b0 31 66 3f 94 fc 82 3f bf 50 6a 3f
       0.986972 0.8991957 1.0233331 0.9152946
000150 81 ab 77 3f 8f 22 6a 3f aa 87 8f 3f a6 62 87 3f
       0.9674607 0.9145898 1.1213276 1.057698
000160 01 59 6e 3f b3 e9 69 3f 00 44 77 3f 39 9f 82 3f
       0.9310456 0.9137222 0.96588135 1.0204841
000170 13 2a 87 3f 02 29 84 3f 85 9c 77 3f 50 8e 88 3f
       1.0559715 1.0325015 0.96723205 1.066843
000180 2c 7b 86 3f f9 1a 6e 3f 37 71 5a 3f 94 d0 8e 3f
       1.0506339 0.93009907 0.85329 1.1157403
000190 be 72 69 3f 53 6e 83 3f d0 bf 76 3f 6a 57 7f 3f
       0.9119071 1.0268043 0.9638643 0.9974276
0001a0 c8 88 6d 3f 7b d4 89 3f 4a d7 73 3f 94 6f 67 3f
       0.92786837 1.0767969 0.9525038 0.9040463
0001b0 12 f2 69 3f 48 b3 7e 3f 40 68 70 3f 6b 62 7b 3f
       0.91384995 0.9949231 0.9390907 0.9819705
0001c0 61 12 6f 3f 34 f5 69 3f 1e c9 63 3f fe 99 84 3f
       0.9338742 0.91389775 0.88978755 1.0359495
0001d0 8b 71 81 3f 38 48 92 3f 81 4d 78 3f 9e ed 6a 3f
       1.0112776 1.142829 0.9699326 0.91768825
0001e0 f6 e1 6c 3f 43 8a 7f 3f 60 df 84 3f 52 b5 61 3f
       0.9253229 0.99820346 1.0380669 0.881673
0001f0 ca 36 71 3f ee 34 7a 3f fc c9 76 3f ed 73 7c 3f
       0.94224226 0.97737014 0.96401954 0.9861439

bn1.bias f4 [128]
000000 7b ae 8a 3c c4 bb ea 3d f9 10 b0 bc 68 74 d9 bd
       0.016928902 0.11461595 -0.021492468 -0.10617906
000010 87 f7 87 3d 44 b3 15 be a0 9a 78 3c b6 fd 0e be
       0.06639009 -0.14619166 0.015173584 -0.1396397
000020 8c a3 89 be d2 21 c2 bd de e0 2c be 0d 0e 4f 3c
       -0.2688259 -0.09479107 -0.16882655 0.012637627
000030 e9 79 ad 3d c3 20 c4 bd c4 5a 51 bd e7 8e 3b bc
       0.08470518 -0.09576561 -0.05111195 -0.011447645
000040 ed 45 6a bd af 5a 47 3d b5 13 b4 bc 0e ad 8c bd
       -0.057195593 0.048670467 -0.021982053 -0.06868945
000050 c2 b1 0b 3e 51 d4 eb bd b6 12 3b be 6f 9e 6f be
       0.13642028 -0.115151055 -0.18268856 -0.23400281
000060 9a ba ac bd 04 a4 7c be ff 62 58 be 08 93 95 3c
       -0.08434029 -0.24671942 -0.21131514 0.018258587
000070 cd 64 25 3c c0 ab a5 bd f7 df 66 be 41 b2 01 be
       0.010094834 -0.08089399 -0.22546373 -0.12665655
000080 76 e2 c2 bd 22 0f 01 be bd b2 03 be 75 ad 56 bd
       -0.0951585 -0.12603429 -0.12861152 -0.052411515
000090 d7 ca 43 be 9e 5e b1 3d ad c3 6c be 97 dc eb ba
       -0.19120346 0.08660625 -0.2312152 -0.0017994818
0000a0 be 29 21 3d 97 25 8e bd cf c2 9a 3d 3b 94 e2 3c
       0.03934645 -0.069407634 0.07556688 0.027658572
0000b0 2b de 13 bd 47 95 08 be 72 b6 4d 3d e2 bc a6 bd
       -0.036100548 -0.13338195 0.05022282 -0.08141495
0000c0 f9 8d ac 3d 89 fb 4c be c9 0d a4 3c c1 25 39 3c
       0.08425517 -0.20017828 0.020026105 0.011300505
0000d0 b0 19 a3 bd 2d b5 f9 bd b2 0e 67 be 91 14 24 bd
       -0.07963884 -0.1219276 -0.225642 -0.040058676
0000e0 a2 98 ce bd 6b e4 72 3c 9b df 42 be b0 d3 ea bd
       -0.10087706 0.014824967 -0.19030611 -0.114661574
0000f0 9e c2 4d bd f7 26 e0 3d ea 77 c7 3e 70 b0 9f be
       -0.05023443 0.10944932 0.38958675 -0.311893
000100 6d 53 95 bc f2 68 18 be 38 04 95 bc aa a3 ba bd
       -0.018228257 -0.14883783 -0.018190488 -0.09113248
000110 ed e7 0c be bb 9f 64 bd 40 0c f6 3d e4 3c d4 bd
       -0.13760348 -0.055816393 0.12014055 -0.103631765
000120 68 1e 53 bc 52 8b 4c be 25 be cf bd b4 7c 8b be
       -0.012885667 -0.19975021 -0.10143689 -0.27243578
000130 c4 ff d4 bd bb a6 c3 3d 80 38 f8 bd b0 1d 61 be
       -0.10400346 0.09553286 -0.121201515 -0.21983981
000140 62 c3 6c bc 92 a2 34 bd 2c 53 ab 3c ac f3 5b be
       -0.01445088 -0.04410035 0.020913683 -0.21479672
000150 a6 c8 3f be 83 44 5e 3c dd 32 a7 bd 27 03 a0 bd
       -0.18728885 0.013566139 -0.08163998 -0.07813101
000160 34 76 15 be c5 9b ab bd fb 9f 90 bd b6 aa 8a bc
       -0.14595872 -0.0837932 -0.07061764 -0.016927104
000170 f5 0b f9 3c 9d b6 3b 3d 35 9b 1e 3c fb 62 07 bd
       0.03040121 0.04582845 0.009680559 -0.03305338
000180 20 df 06 3e e4 8e 6a bc 2e d5 1b 3d 4c 6e 90 bd
       0.13171053 -0.014316294 0.0380451 -0.070522875
000190 72 6c f3 3d 08 12 8b be 3a 83 87 bd be 6d 58 be
       0.11885919 -0.27162194 -0.06616826 -0.21135613
0001a0 10 ee b7 bc 16 36 04 be c8 fc f1 bd d2 ce 01 3e
       -0.022452384 -0.12911257 -0.11815792 0.12676552
0001b0 42 7a b2 bd ae 70 3d bc 9a 45 3a 3c 84 29 8d bc
       -0.08714725 -0.011562509 0.011369133 -0.01723171
0001c0 8e 90 07 3d ed 08 e6 3d 71 18 d8 bd 8b 6a ce bd
       0.033096842 0.11232171 -0.10551537 -0.10078915
0001d0 4b 5b b2 3d 76 ca c8 bd 70 ea b3 3d 48 47 a6 bd
       0.08708819 -0.09804241 0.0878495 -0.081190646
0001e0 2c 24 c9 bd 7e 51 9f bb f8 73 05 3e b2 6a f9 3b
       -0.09821352 -0.0048620095 0.1303252 0.007611596
0001f0 8d 6f 3a be ff 94 c9 bc 35 7a 6b 3d e2 13 15 be
       -0.18206616 -0.02460718 0.057489593 -0.14558366

bn1.running_mean f4 [128]
000000 f3 84 54 c0 01 e3 3b 40 3f 7e 8e 3f 57 2f 63 bf
       -3.3206146 2.9357302 1.1132277 -0.8874411
000010 eb 4c 69 40 bc 18 83 be f5 a0 71 bf d6 0c 30 bf
       3.6453197 -0.25604808 -0.94386226 -0.68769586
000020 e2 9a 15 c0 af f9 f9 bf 3a 6d 0b c0 a0 af ef 3f
       -2.3375783 -1.9529322 -2.1785417 1.8725471
000030 5e 69 c5 3f 9a 2c 1b c0 0a 0c 91 be 1b b3 8a 3f
       1.542278 -2.4245973 -0.28329498 1.0835909
000040 57 61 f7 bf 05 b5 81 be a3 e4 09 3f 5c f1 3e be
       -1.9326581 -0.2533342 0.53864497 -0.18646759
000050 b7 e6 5b 40 73 2e bd 3e ac 7f 19 40 9d 00 11 bf
       3.4359567 0.369495 2.3984175 -0.5664156
000060 e2 9f 3c bf 63 a8 d1 be d2 3a 95 bf af ea bd 3e
       -0.7368146 -0.4094878 -1.1658576 0.37093112
000070 ae 9f 97 3f 32 cb 64 bf 76 fe dd bf 99 2a 10 3e
       1.1845605 -0.8937255 -1.734328 0.1407875
000080 09 85 8a 3e 2e c5 cb bf 70 b7 a2 be 2a 18 b3 3e
       0.27054623 -1.591955 -0.31780577 0.34979373
000090 2f 2b 90 3f 6c df b9 3f 70 55 f3 be ab 5f a2 3f
       1.1263179 1.4521308 -0.4752612 1.2685446
0000a0 1f aa a1 be 28 e9 9c bf 1e 9d 14 40 33 68 a1 3e
       -0.31575105 -1.2258654 2.3220897 0.3152481
0000b0 e3 a8 f1 3f 73 86 2b bf d8 f8 19 40 50 54 1a bf
       1.8879665 -0.6700203 2.4058132 -0.602849
0000c0 ea 60 14 3e 4e 75 a7 3f c7 da 15 40 f1 db 21 40
       0.14490095 1.3082674 2.341478 2.5290492
0000d0 2a 22 1d 3f 26 03 84 3d 51 c1 aa bf 51 93 52 bf
       0.61380255 0.06445913 -1.3340245 -0.82256037
0000e0 0c bf 0a c0 b8 08 c4 3f 5f c7 98 bd 60 41 0f c0
       -2.1679106 1.5315161 -0.07459902 -2.2383652
0000f0 e5 10 e0 3f b8 f6 85 bc f4 56 3b 3e 9a 07 39 bf
       1.7505156 -0.016352996 0.18294889 -0.72277224
000100 82 8f 8d be 5f c3 b7 be ec 86 ae 3f 5a 4a 6f 3f
       -0.2764855 -0.35891244 1.3634925 0.93472826
000110 41 07 e2 bf 8b 41 26 3f 68 88 bd be 7e 7e d7 bd
       -1.7658464 0.6494376 -0.37018132 -0.10522173
000120 e5 23 2d 3f 8e cf ad bf 3e e8 b2 bf 1b c8 f2 bf
       0.67632896 -1.3578966 -1.3977125 -1.8967317
000130 a7 16 41 bc b6 1c 17 c0 b1 9e 9c 3f 2c 2f 08 3f
       -0.011785186 -2.3611274 1.2235929 0.5319698
000140 06 f7 ba bf 52 1a be 3f 3c 8f 37 40 e3 0c 70 c0
       -1.4606636 1.4851782 2.8681173 -3.7507865
000150 1c 4c 4a 3d 1f ac ca 3e bb 1c e1 3f 65 a4 96 be
       0.04938899 0.39584443 1.7586893 -0.29422298
000160 61 2b b2 bd 5c 95 d6 be 2d a3 ed be b1 96 41 40
       -0.0869968 -0.41910827 -0.46413556 3.0248225
000170 be 73 d8 bf 6b 89 07 c0 fb 39 d6 3f 90 5f f2 bf
       -1.6910322 -2.1177623 1.6736444 -1.8935413
000180 47 b2 91 3f eb 44 9e bf 5b 27 14 40 89 5d 6e bd
       1.1382531 -1.2364782 2.314902 -0.05819467
000190 33 21 9c 3f ce d6 2c 3d 62 c3 ee bf a9 ef 25 c0
       1.2197632 0.04219704 -1.8653376 -2.5927527
0001a0 39 19 12 c0 d6 50 9b be c0 4d 00 40 15 24 bc bf
       -2.2827895 -0.3033511 2.0047455 -1.4698511
0001b0 ca e3 3d 3e 4c 75 02 3f 6f b8 11 40 a3 77 0a 3f
       0.18543926 0.5096023 2.276882 0.540888
0001c0 7a cb 8d 3f ca 21 58 be 23 74 ac bf 7d 89 94 ba
       1.1077721 -0.2110664 -1.3472942 -0.0011332479
0001d0 85 a4 40 40 ae d5 c7 be 42 26 d6 3f 85 49 96 bf
       3.0100415 -0.39030212 1.6730425 -1.1741186
0001e0 57 69 a5 bf f7 1a 9a bf 25 a8 6b bf 2d 19 89 bf
       -1.2922772 -1.2039479 -0.92053443 -1.0710808
0001f0 21 0f af bf f0 5c b2 3f 90 2d 8e 3f af 48 b8 3f
       -1.3676492 1.3934612 1.1107655 1.4397181

bn1.running_var f4 [128]
000000 17 3c 12 40 0e 0f a2 40 4e 1c 9f 3f 40 56 36 3f
       2.2849176 5.0643377 1.2430513 0.7122536
000010 87 da 8b 40 8c 62 21 40 11 34 1d 3f 09 f7 4b 40
       4.3704257 2.5216398 0.6140757 3.1869528
000020 1b c0 ba 3f 5c c4 e1 40 a2 9a 56 40 bd 74 87 40
       1.4589876 7.0552197 3.353188 4.2330003
000030 ef 34 ca 3f 78 1e f4 40 3f 3f a4 3f 99 88 37 3f
       1.5797404 7.6287193 1.2831801 0.71692806
000040 7f ad 17 3f 28 73 9e 3e f5 39 3c 40 35 b0 24 40
       0.5924911 0.30947232 2.9410374 2.5732548
000050 1f dc 3a 40 71 1f 69 41 c2 b2 3b 40 ab 1f fa 3f
       2.9196851 14.570176 2.9327855 1.9540914
000060 3c 85 92 3f ea c9 22 40 c5 4a a9 3e a5 7a 0f 40
       1.144691 2.5435739 0.33064857 2.2418606
000070 73 84 ec 3e 81 32 4f 3e 18 70 10 40 93 9e 39 40
       0.461948 0.2023411 2.2568417 2.9003036
000080 a1 85 97 40 e7 28 1e 40 c5 c4 b5 40 27 a3 27 40
       4.735062 2.4712465 5.6802697 2.619333
000090 3e f6 2e 40 96 d1 61 3f dd 56 86 3f d7 d1 25 40
       2.7337794 0.8821043 1.0495259 2.5909326
0000a0 be 4e 1b 3e 49 f6 d9 40 1e 94 0f 40 73 1e 59 40
       0.15166757 6.811314 2.2434154 3.3924835
0000b0 68 f7 a0 3f 24 9d be 40 1c ad a1 40 f5 86 5b 40
       1.2575502 5.956682 5.0523815 3.4301121
0000c0 60 6c 55 40 e9 21 0e 40 3e 07 37 40 40 9c 04 40
       3.3347397 2.2208197 2.859817 2.0720367
0000d0 21 bf aa 3f b9 ea 14 40 41 66 d5 40 c9 b4 71 40
       1.3339578 2.3268263 6.668732 3.7766593
0000e0 19 fc 86 40 fa 2b fc 3f 25 fc 06 40 13 a1 ef 3f
       4.2182736 1.970092 2.1091397 1.8721031
0000f0 ca a1 88 40 23 5b 6b 40 b9 15 74 3d ac a9 ab 3f
       4.2697496 3.6774375 0.05959103 1.3411155
000100 e0 ea 0a 3f 83 c2 3e 3f 4d e4 4d 40 75 87 c1 3f
       0.5426464 0.7451555 3.2170594 1.5119463
000110 ab 7c 2e 3f 6c ad 44 40 c9 78 70 3e 94 0f f3 3f
       0.6815898 3.0730848 0.23483576 1.8989129
000120 56 b0 54 40 ca 62 4a 40 f1 b6 be 3f 89 b7 b0 3f
       3.3232627 3.1622796 1.4899579 1.380601
000130 9a fb ce 3d 28 02 0a 40 40 85 2a 40 61 cf c4 3f
       0.10106583 2.1563816 2.664383 1.5375787
000140 1a 35 a0 40 2e 63 16 40 52 c6 64 40 49 2d a4 40
       5.006482 2.3498034 3.5746045 5.130528
000150 39 c1 0c 40 01 52 a9 40 6d 5a a4 3f 86 89 16 3e
       2.1992934 5.2912602 1.2840096 0.14700899
000160 09 8f b4 40 c8 2c 65 40 33 e6 05 40 ad 37 d8 3f
       5.6424603 3.5808582 2.0921752 1.6891991
000170 5f 88 56 3f 72 10 9e 3f 9d 74 12 41 b6 e8 5d 40
       0.83801836 1.2348769 9.15347 3.4673285
000180 5b 25 1e 3f 5c 9e 89 40 96 0b 40 40 5e d3 51 40
       0.6177575 4.300581 3.0007071 3.2785258
000190 21 c4 67 40 5a 37 55 3f 05 91 b6 40 78 bf fd 3f
       3.6213458 0.83287585 5.7052026 1.9824057
0001a0 fa d7 47 40 18 93 43 3f 6f d2 57 40 30 d4 6b 41
       3.1225572 0.7639632 3.3722188 14.739304
0001b0 ac 52 95 40 a9 e3 da 3f b2 04 56 40 95 4a b3 40
       4.666342 1.7100726 3.3440366 5.6028543
0001c0 6e 15 e5 40 e9 35 ad 40 68 19 ff 3f ee fe b7 3f
       7.158866 5.412831 1.9929628 1.4374673
0001d0 2e 69 8b 3f 72 a1 5a 3e 95 c1 9b 3f 47 ea 41 40
       1.0891473 0.21350649 1.2168452 3.0299242
0001e0 ec 60 b0 40 5b 8f b8 3f 74 1b 2a 3f fe d1 d9 40
       5.5118313 1.4418749 0.6644814 6.806884
0001f0 f3 fe 4d 3f ad fa 13 3f df fc f5 3f b4 85 43 40
       0.80467147 0.57804376 1.9217795 3.0550356

fc2.weight f4 [128, 128]
000000 8a 2e 83 bc 2a 2d 8b 3c a0 13 6f bd 83 6b 45 3d
       -0.016013402 0.01698931 -0.058368325 0.048198234
000010 fc 0a 9a 3c d7 6c 6f bc 52 1a 9e bd b5 3e 8a bd
       0.018804066 -0.014613352 -0.07719864 -0.06750242
000020 56 88 2c 3c 93 82 69 bd fd ff 54 bd b7 10 0f bd
       0.010530552 -0.05700929 -0.052001942 -0.03492805
000030 ed 8e 6e 3d 05 4e d1 3c d6 6f 45 bd 03 7c 84 3b
       0.058241773 0.025549898 -0.04820236 0.0040431037
000040 84 1a c5 3c 48 72 82 bd 9b 44 01 3d e2 e1 81 bc
       0.024060495 -0.06369454 0.031559568 -0.01585478
000050 48 1a 1f bd 33 09 b9 3c b7 28 0a 3d a0 eb c2 3b
       -0.038843423 0.022587394 0.033730235 0.005948499
000060 98 16 10 3b 26 3b fe 3c 1e 07 06 3d a6 bf 16 bc
       0.0021986123 0.031034064 0.03272163 -0.009200966
000070 40 8c 40 bd 4e 8f 21 b9 57 fd 0e be 86 4a de bd
       -0.047008753 -0.00015407542 -0.13963829 -0.10854058
000080 94 6b d8 3c 7f 1e 25 3d 94 ed 8f bd 3e ac 10 bd
       0.026418485 0.040312286 -0.07027736 -0.035320513
000090 dc a4 be bc 52 a8 76 bd 20 ab c3 bd 76 34 ef 3c
       -0.02327197 -0.060219117 -0.09554124 0.02919982
0000a0 e9 11 a2 bd 24 b3 9b bd 7e 46 8c bd e9 5a 90 bb
       -0.07913572 -0.07602528 -0.06849383 -0.0044053686
0000b0 c8 d3 0f bd ed 6a 16 bd 7d 38 87 3c 83 0c 61 bd
       -0.03511408 -0.036723066 0.016506428 -0.054943573
0000c0 87 67 46 bc cd ec 82 3d 48 66 94 bd f4 47 e2 bd
       -0.012109644 0.063928224 -0.07246071 -0.1104888
0000d0 bc 04 73 3d 8f de 9c bd f2 39 a4 3a c3 81 6a 3c
       0.059330687 -0.07659637 0.0012529476 0.014313164
0000e0 0f 5b 85 bd 89 ec cd 3d 3c 8f c9 bd ee 2e b7 bc
       -0.06511509 0.10054881 -0.09841773 -0.022361245
0000f0 32 b3 8c bd 5a af 83 3d 23 5c 2a 3d ae 35 92 bc
       -0.06870116 0.0642993 0.041591775 -0.017847862
000100 e8 c6 aa 3c 8e c2 bc 3d 7e 2e 00 bc ac 7e bd bd
       0.020846799 0.09216796 -0.007823585 -0.09252676
000110 02 f3 f3 bc 77 27 96 bd 5f f3 15 bd 1a 3c 50 bd
       -0.029778961 -0.07331746 -0.03660905 -0.050838567
000120 f0 89 a2 3c 69 d6 24 bb ef b5 46 bc 01 ed 12 be
       0.019841164 -0.0025152212 -0.012128337 -0.14348222
000130 49 88 2b be 48 ac 9c 3d 01 9f 85 bd 19 ec 64 bd
       -0.16751207 0.076500475 -0.06524468 -0.055889223
000140 57 90 eb 3d 77 2e fc bb 1f ee ff bc 4b 71 33 bd
       0.1150214 -0.0076959687 -0.031241475 -0.043809216
000150 07 85 11 bc ea 23 3f 3d c0 0c b9 bc 4a 60 8e bd
       -0.008881814 0.04666511 -0.022589087 -0.069519594
000160 97 90 f4 3c 86 00 8a 3d 71 b1 00 be 36 eb 9a bd
       0.029854102 0.06738381 -0.12567689 -0.07564394
000170 86 f1 49 3d 4b e4 b9 bd a3 5a 1c 3d 32 01 cb bc
       0.0493026 -0.090767466 0.038172375 -0.024780843
000180 83 31 ac bd 50 1a ed 3c 7d ee b4 3a aa d3 10 bd
       -0.08407881 0.02894321 0.0013803985 -0.03535811
000190 61 73 a7 3c eb 3a 25 bc a1 8b 28 bd cb ec 43 3d
       0.02044076 -0.010084848 -0.041148786 0.047833245
0001a0 73 ef 2d bd e7 e7 49 3c e3 09 75 bd 5c 99 86 3c
       -0.042464685 0.012323356 -0.05982388 0.01643055
0001b0 34 cd 2b bd 48 38 6d 3d 1e 54 31 bd 6e 93 99 3d
       -0.041943744 0.057915002 -0.04329311 0.07498823
0001c0 b4 5b 1a 3d c7 c0 5d bd 9b b6 5e bd 1d c3 c4 bc
       0.03768511 -0.054138925 -0.054373365 -0.024018819
0001d0 0b 80 80 3b 3c ee 0d 3e 6b 69 6f 3d a3 30 81 bc
       0.003921514 0.1386041 0.058450144 -0.015770262
0001e0 63 43 0c bd 35 05 d1 3d fe 1b 01 be 3c 51 19 3d
       -0.034243952 0.10206071 -0.12608334 0.037430987
0001f0 52 c3 cd bc 46 dd 92 bc 3c f5 19 3d 21 6f 17 bd
       -0.02511755 -0.017927777 0.03758739 -0.036971215
000200 75 7a fb 3d e6 a2 f1 bc 9c bf 81 bd 3c a4 1a bd
       0.12279216 -0.029496621 -0.06335375 -0.037754282
000210 ba 1b 93 3d ab fe 8f 3d dc dc 33 3d a4 82 90 bd
       0.07183023 0.07030996 0.0439118 -0.07056168
000220 1b ff b9 3d d5 e6 99 bc 14 38 98 bc 03 3c 8b bd
       0.09081861 -0.018786827 -0.018581428 -0.06798556
000230 64 55 3f 3d 09 06 bc bd af 24 82 bd 10 3e 84 3d
       0.046712294 -0.091808386 -0.06354653 0.0645715
000240 cd 0b 0c bd 24 91 74 3b ad 26 bf bc d9 85 43 bd
       -0.03419094 0.0037317956 -0.023333872 -0.04773507
000250 52 6d 95 bc a7 da 85 bd 87 6b 22 3c 71 c4 29 3d
       -0.018240605 -0.06535845 0.009913332 0.041447107
000260 22 3b 65 bc 03 7e 22 bc 71 f9 be bd d4 59 91 3d
       -0.013991149 -0.009917739 -0.09324921 0.070972115
000270 0a 77 08 3e 06 e2 6b bd df 7a 91 3d a2 fa b0 bc
       0.1332666 -0.0575886 0.07103514 -0.021603886
000280 fe 7c 6e bd 4e 8d d7 3b aa 84 2a bd f5 3d a2 bd
       -0.05822467 0.006578124 -0.041630425 -0.079219736
000290 85 e3 1c bd 7e 6f a2 3c 72 64 4c 3d ed b6 1b be
       -0.038302917 0.019828554 0.04990048 -0.152065
0002a0 59 3d 51 3c 73 93 c9 3c 24 ae 04 3e 5f d0 8f bd
       0.012770974 0.024606442 0.12957054 -0.070221655
0002b0 b4 8b d6 b8 26 1a d4 3d 1a 66 84 3c d0 bd 31 bd
       -0.00010230337 0.1035655 0.016161967 -0.04339391
0002c0 cf b4 b3 3b 0a 14 b7 bb a4 4a 0a bd 5c 3b 85 be
       0.0054842005 -0.0055871056 -0.03376259 -0.2602185
0002d0 65 b2 d6 bb 2f 4c c6 3c 16 12 c9 bb 55 10 cf 3c
       -0.006552028 0.024206249 -0.006136189 0.025276342
0002e0 56 2c 8f bc 99 a6 1e 3d 1e 14 01 3d b9 82 f7 bc
       -0.017477196 0.0387331 0.031513326 -0.0302137
0002f0 66 0c 04 bd ea f9 47 bd 7a 81 0f 3d f8 f8 35 3d
       -0.032238387 -0.04882232 0.035035588 0.04442689
000300 14 0a 8b 3c f7 c0 12 3d 95 38 ac 3d 9c 13 cb bc
       0.016972579 0.035828557 0.0840923 -0.024789624
000310 57 3c 6b bd 88 3f 9f bd f9 b9 f0 bd e0 54 09 bd
       -0.05743059 -0.077757895 -0.117542215 -0.03352821
000320 f9 1b 1e bd ca f7 83 3d ce 22 7d 3d 35 99 24 bc
       -0.038600896 0.064437464 0.06180077 -0.010046293
000330 93 34 58 bc 9f 47 a1 bd 3c c3 6e bd 89 e7 8a 3d
       -0.013196128 -0.07874989 -0.05829166 0.06782443
000340 15 51 50 bd 4c 32 e8 3b 68 42 f0 3c 98 d9 d6 3d
       -0.050858576 0.007086074 0.02932854 0.104907215
000350 91 ad 0d bd 41 d8 90 3d 4b 99 de bc 02 b8 f6 bc
       -0.034589354 0.07072497 -0.027172705 -0.030117039
000360 50 be 9d bc 5b 08 7c bc c7 f2 e7 3d 5e 3f 8a 3a
       -0.019255787 -0.0153828515 0.11325603 0.0010547449
000370 54 c0 62 3b ab f4 6f bd b5 6d af bd 3a 2b 21 bc
       0.00345995 -0.058582943 -0.08565847 -0.009836966
000380 c2 36 e3 3b 25 f6 e7 3d 6d e2 84 3d b7 80 a1 3d
       0.006934018 0.11326245 0.064885 0.078858785
000390 2e 2f db 3c 15 41 bd bd 6a 77 82 bd 5a c6 79 3d
       0.026755895 -0.09240929 -0.06370433 0.06098018
0003a0 e7 1d 5d 3d 80 45 60 3d 25 45 96 bd dd 28 b4 bd
       0.053983595 0.05475378 -0.07337407 -0.087968566
0003b0 9c 01 42 bd cd 2b 44 bc 89 22 d7 bd 7f 96 c4 3d
       -0.047364816 -0.011973334 -0.10504634 0.09599017
0003c0 7f 98 69 3d ab fb 03 bd 2e df 88 bc a9 81 9c bb
       0.057030197 -0.03222243 -0.016707983 -0.004776199
0003d0 40 83 ae bd d3 ef 60 3d bb 0c ac bc 04 1e ed bd
       -0.08521128 0.054916214 -0.021002164 -0.11577991
0003e0 75 76 8d 3d 55 01 35 be 1a 65 4c bd 6a 61 9d 3c
       0.069073595 -0.1767629 -0.049901105 0.01921149
0003f0 de cc ef bc 4d 49 6d bd 8c 2f cb bc b1 38 f2 3d
       -0.029272493 -0.057931233 -0.024802946 0.11827219

fc2.bias f4 [128]
000000 ec 5e 6c 3d 7b 40 3b 3d 22 07 21 3d b4 90 a3 3d
       0.057707712 0.04571579 0.039313443 0.07986584
000010 d1 94 85 3c 72 d4 1e bd ce 2d 24 3d ff 79 0b bc
       0.016306313 -0.038776822 0.040082745 -0.008512973
000020 5c 15 b2 3d f0 5f 8b bd 81 85 54 bd b7 9b 6a 3d
       0.0869548 -0.06805408 -0.05188513 0.057277407
000030 34 94 6e bd 9f 17 47 3d f6 96 6d bd b3 cd dd 3c
       -0.058246806 0.04860651 -0.058005296 0.027075624
000040 a1 c6 9b 3d d7 dd 10 3d e1 59 58 bd 80 ab 10 3d
       0.07606245 0.035367813 -0.05282009 0.035319805
000050 d3 0b 24 ba f6 40 94 bc a6 a0 b1 bd 44 60 6d bd
       -0.00062578655 -0.018097382 -0.086732194 -0.057953134
000060 7f 97 f3 bc 2a dc 86 3d af d2 79 bd 9f 74 a9 bd
       -0.029735325 0.06584962 -0.06099194 -0.08274197
000070 cf 82 84 bd c8 92 e7 3c 1b 1d a1 bd 9b be b4 bd
       -0.06470262 0.028268233 -0.078668796 -0.088254176
000080 e7 64 25 3b 79 ec aa bd ce 0c 91 3c 48 33 23 bc
       0.0025237144 -0.08345885 0.017706301 -0.009960957
000090 b8 21 a5 3d de ce 06 bd 60 22 a7 bd 56 63 52 bd
       0.08063072 -0.032912128 -0.081608534 -0.051364265
0000a0 7c 7d 97 bb 85 b4 10 bd 3e b7 b1 3d 0b 57 8d bd
       -0.004623113 -0.035328407 0.08677529 -0.06901368
0000b0 31 1e ae bd 6b 89 1d 3d f2 31 ae bc 3d a1 60 3d
       -0.08501852 0.03846113 -0.02126405 0.05484127
0000c0 8a 9b 71 3c bf 6b fa 3c 1f cd 82 3d c8 74 31 bc
       0.014746556 0.030568955 0.0638678 -0.0108310655
0000d0 6b f1 19 bd 9f fc 01 bd 86 af be bc 1a e3 a1 bd
       -0.03758375 -0.03173506 -0.023277055 -0.07904644
0000e0 e6 99 95 3d 0c 1e 1d 3d 71 31 fb bc 07 29 8e 3d
       0.073047444 0.038358733 -0.030663224 0.06941419
0000f0 19 f9 11 3d 69 cb 16 3d 7b e3 53 3d 5f 76 65 3c
       0.03563795 0.03681508 0.051730614 0.014005273
000100 7f e7 eb bb 3d 3c 88 3d 3f 43 e5 3c 20 a7 72 3d
       -0.0071992273 0.066521145 0.027986167 0.059241414
000110 93 fb 4b 3d 6d 7d 72 bd 09 70 b1 bc df fe 8d 3d
       0.049800467 -0.059201647 -0.021659868 0.069333784
000120 65 40 81 bc a9 c3 1d bd bd 82 19 bd bd c3 8f bd
       -0.015777776 -0.038516674 -0.037478197 -0.07019756
000130 61 25 54 3d 41 4e 51 3d 9b f5 43 bd bf ad af bd
       0.05179346 0.05110002 -0.04784165 -0.08578061
000140 ff ab a8 3c 5f 16 b5 3b 31 e6 7e 3d d8 b6 96 3c
       0.020589827 0.0055263485 0.062231246 0.018397734
000150 d6 30 57 bc 13 9e 5c 3d 4f 2a 6c 3d ce 50 35 3d
       -0.013134202 0.05386169 0.057657536 0.044266514
000160 ad 9c 78 3d 55 34 a4 bd a1 39 16 3d 07 f2 48 3d
       0.060696293 -0.08017794 0.036676053 0.04905894
000170 80 f0 5b 3d 30 59 13 bd f0 af ae 3c 0c ff 93 bd
       0.053696156 -0.035973728 0.021324128 -0.07226381
000180 e2 d2 91 3d 66 68 ce 3b aa 35 7c 3d 3f 94 c7 3c
       0.07120301 0.0062990664 0.061574616 0.024362681
000190 67 1a 23 bd 29 27 49 3d 49 9d 69 3d f5 57 40 bd
       -0.0398201 0.04910961 0.057034764 -0.046958882
0001a0 98 6e fb 3b f0 98 41 bd ac 0d 81 bd 39 37 0c 3d
       0.007673096 -0.047264993 -0.06301436 0.034232352
0001b0 42 b6 97 bd 2c d0 09 3d 02 5f 89 bd 29 01 51 bb
       -0.0740781 0.033645794 -0.067075744 -0.003189156
0001c0 d4 de 01 bd 4d 91 2a 3d 7f 69 a9 3d 78 f5 87 bd
       -0.031706646 0.041642476 0.08272075 -0.06638616
0001d0 31 90 c5 bc 0c 77 6a bc 2b af 9f bd 6f 8c a0 bd
       -0.024116607 -0.01431061 -0.077970825 -0.078392856
0001e0 36 78 27 bd 0f c0 9d bc 35 34 9d 3d 4e c8 e1 3c
       -0.040886126 -0.01925662 0.07675973 0.027561333
0001f0 54 cd 9d 3d 38 74 93 bd fe 1c 41 bd 55 22 1f 3c
       0.07705179 -0.07199901 -0.04714679 0.009712775

bn2.weight f4 [128]
000000 84 7f 7f 3f d1 69 82 3f 60 17 80 3f 45 78 7a 3f
       0.9980395 1.0188543 1.0007133 0.97839767
000010 fb 8f 80 3f 3f 3f 7f 3f 84 09 83 3f ea 80 83 3f
       1.0043939 0.9970588 1.0237279 1.0273716
000020 21 31 83 3f 01 57 7d 3f 6b 64 83 3f 91 86 7b 3f
       1.0249368 0.9896088 1.026502 0.9825221
000030 a4 2e 80 3f a8 29 7d 3f 87 8d 7c 3f 02 57 81 3f
       1.0014234 0.9889169 0.98653454 1.0104678
000040 01 51 8c 3f 50 f2 7b 3f 44 7a 7c 3f 4b 45 77 3f
       1.096222 0.98416615 0.9862406 0.9659011
000050 be 24 7f 3f 9c a0 7d 3f 62 92 83 3f 5c e9 81 3f
       0.9966544 0.99073195 1.0279047 1.0149341
000060 55 3d 7f 3f 84 1b 80 3f f6 35 7e 3f 79 6c 79 3f
       0.9970296 1.0008397 0.9930109 0.9743114
000070 3a d3 81 3f 96 1a 81 3f dc 27 7f 3f fe e2 85 3f
       1.0142586 1.0086238 0.99670196 1.0459898
000080 23 53 7c 3f 51 0e 7b 3f 12 56 81 3f ff 95 80 3f
       0.98564357 0.9806872 1.0104392 1.0045775
000090 98 a5 7d 3f 1c 5c 7f 3f 44 2b 81 3f 12 02 82 3f
       0.990808 0.9974992 1.0091329 1.0156882
0000a0 df a8 80 3f 29 38 80 3f 4d 57 86 3f be d3 80 3f
       1.0051535 1.0017139 1.0495392 1.0064619
0000b0 06 5d 83 3f e0 e7 79 3f db a1 77 3f 9b 76 80 3f
       1.0262764 0.9761944 0.96731347 1.0036196
0000c0 79 4e 80 3f 6c 06 7e 3f 2d 63 81 3f 8e 81 74 3f
       1.0023948 0.9922855 1.0108391 0.95510185
0000d0 4b 8a 79 3f 89 f5 72 3f 55 3f 83 3f 94 77 7f 3f
       0.97476643 0.94905907 1.0253702 0.99791837
0000e0 51 ce 7f 3f 07 fd 84 3f 1b 52 80 3f 06 24 82 3f
       0.9992419 1.0389718 1.0025057 1.0167243
0000f0 6b 90 7e 3f d8 85 7e 3f 63 d9 80 3f 0c 6f 81 3f
       0.99439114 0.9942298 1.0066341 1.0112014
000100 cb 85 83 3f f0 a1 7f 3f 09 70 82 3f 73 e7 80 3f
       1.0275205 0.9985647 1.019044 1.0070633
000110 cc 14 85 3f a6 3b 7f 3f 76 ad 84 3f 44 3f 89 3f
       1.0396972 0.9970039 1.0365436 1.0722432
000120 30 5d 81 3f 52 56 7e 3f 93 fe 81 3f a7 01 7a 3f
       1.0106564 0.99350464 1.0155815 0.9765877
000130 12 bf 7a 3f 57 a1 7d 3f 2b 94 7f 3f e0 1e 81 3f
       0.979478 0.9907431 0.9983546 1.0087547
000140 52 8c 82 3f ce ea 81 3f 88 97 7d 3f 20 d7 81 3f
       1.0199072 1.0149782 0.99059343 1.0143776
000150 29 2f 79 3f 31 a0 7b 3f 57 bf 81 3f c4 10 81 3f
       0.97337586 0.9829131 1.0136517 1.0083241
000160 6c 33 79 3f 21 dd 7d 3f e7 d3 82 3f 84 02 82 3f
       0.9734409 0.9916554 1.0220917 1.0157018
000170 59 b8 7b 3f e4 06 7f 3f 99 ac 7e 3f ef 0e 83 3f
       0.9832817 0.9961989 0.99482113 1.0238932
000180 67 3a 80 3f a8 f6 81 3f 1f 23 72 3f 5d 7f 81 3f
       1.0017823 1.0153399 0.9458484 1.0116993
000190 7f 31 77 3f 00 c8 7e 3f f1 90 81 3f 70 e1 86 3f
       0.965599 0.99523926 1.0122358 1.0537548
0001a0 a3 36 82 3f a8 32 81 3f 52 99 74 3f a2 01 81 3f
       1.0172924 1.0093584 0.9554645 1.0078623
0001b0 2b 83 81 3f 1c a4 80 3f ce a8 84 3f bc d3 7c 3f
       1.0118154 1.0050082 1.0364015 0.9876058
0001c0 d7 27 7f 3f 15 df 83 3f 71 e4 82 3f 2c e6 81 3f
       0.99670166 1.0302454 1.0225965 1.0148368
0001d0 9b f2 7c 3f e4 63 7b 3f 3a aa 81 3f a6 74 76 3f
       0.98807687 0.98199296 1.0130074 0.9627174
0001e0 51 75 79 3f 5d 79 7d 3f d6 9e 79 3f 01 66 7a 3f
       0.97444636 0.9901331 0.9750799 0.97811896
0001f0 c1 e4 80 3f ce 19 82 3f fc b2 80 3f d5 27 7c 3f
       1.006981 1.0164125 1.0054622 0.9849828

bn2.bias f4 [128]
000000 a4 bf 92 3c 74 2d 6f 3c 49 6c 49 bd 8f 2c df bd
       0.017913647 0.014598239 -0.049175534 -0.10897171
000010 44 85 dd bc cd 6b e9 3c cf e9 53 3c 49 ab 16 3c
       -0.027041085 0.028493786 0.012934162 0.009196111
000020 3e a7 a7 bc c7 9f 12 bd 76 59 0f bc 3c 97 58 3d
       -0.02046549 -0.035796907 -0.0087493565 0.052878603
000030 83 1a fb bd 93 11 65 bd 88 d4 15 3d 20 38 d9 bd
       -0.12260916 -0.055924963 0.03657964 -0.10606408
000040 cd e5 3a bc 36 ee 29 be 47 88 41 3c 4d dd 3a 3d
       -0.011407328 -0.16594777 0.011812276 0.045621205
000050 9d df d5 3c 6c d6 a7 bd 1b c8 7c bd ed a8 df bd
       0.026107604 -0.081951946 -0.061714273 -0.10920892
000060 20 bc 2f be d6 86 e1 bd 89 95 05 be 5f 9e f2 bd
       -0.17161608 -0.11012046 -0.13045324 -0.11846613
000070 96 7d cc bd 40 ca 93 bd 5f cd c9 bd 0d af 4c bd
       -0.09984891 -0.072163105 -0.098536246 -0.04997163
000080 64 c9 eb bd b5 96 37 bd 0a a0 b8 bd 6b 13 41 be
       -0.115130216 -0.04482146 -0.090149 -0.18855064
000090 b4 44 14 bc 18 8b e1 3c e7 64 04 bd 97 54 8e bc
       -0.009049583 0.027532145 -0.03232279 -0.01737432
0000a0 15 7e f8 bd 0e 56 05 be d8 6f 9b 3d 0f b4 ae bb
       -0.12133423 -0.13021109 0.07589692 -0.0053315233
0000b0 df d7 8a bd a0 37 78 bd e8 5e 8a bd 0c 93 61 bd
       -0.067794554 -0.060599923 -0.06756383 -0.055071875
0000c0 38 ae 0a bd 6f 8e a0 bc 03 40 f2 bd 3b bc 12 b8
       -0.033857554 -0.019599168 -0.118286155 -3.4984416e-05
0000d0 b6 0e 87 bd ac a2 ad 3c cf 55 31 3d 6e b6 14 be
       -0.06594603 0.021195732 0.043294724 -0.14522716
0000e0 70 86 ed bd 58 14 22 3d 57 8e c2 bc 13 15 0e bd
       -0.115979075 0.039570183 -0.023749514 -0.034688067
0000f0 c4 d2 10 be 1a 07 0b bd 46 d8 53 bd a7 4d af bd
       -0.141429 -0.03394232 -0.051719926 -0.08559733
000100 f3 09 58 bd 57 65 fa 3c 79 2d d0 bd 1a d1 fe bd
       -0.052743863 0.0305659 -0.10164923 -0.12442227
000110 b2 9c 17 bd 28 11 b4 bc 93 68 b3 bc 85 32 95 bd
       -0.03701467 -0.021980837 -0.02190045 -0.072850265
000120 bc ec 9a bb de 74 14 bd 30 8b e8 bd e2 2a b0 bd
       -0.004727928 -0.036244266 -0.11354673 -0.08601929
000130 39 d4 99 bd db 23 2a bd 8d 20 8f bd 38 34 31 be
       -0.075111814 -0.0415381 -0.069886304 -0.17305076
000140 78 55 c6 bd 4c a1 c8 bd af 99 09 3d 78 98 bc bd
       -0.096842706 -0.0979639 0.03359383 -0.092087686
000150 14 ce 9f bd c9 62 0d be 34 75 c8 3b 92 29 c0 bd
       -0.07802978 -0.13807215 0.0061174873 -0.09382929
000160 eb bf af bd 82 d7 fc bd 5f 65 60 3d b8 4e 13 bd
       -0.08581527 -0.12345792 0.054784175 -0.035963744
000170 15 d9 77 bd 05 cf 63 bc 68 df 44 bc b4 a8 8f bd
       -0.06050976 -0.013904338 -0.012016155 -0.070145994
000180 1a d6 02 3c 89 47 c7 bc 3f c5 78 bd f9 9b d9 bc
       0.007985616 -0.024326103 -0.060734984 -0.026563631
000190 62 4d 74 bd 8f a9 cc 3c 49 8a 97 bd 79 37 7b bd
       -0.05964411 0.024983196 -0.07399423 -0.0613322
0001a0 a2 d9 24 ba 75 87 8e bd 22 71 f0 bc 3e 91 21 be
       -0.00062885333 -0.0695943 -0.02935082 -0.15778062
0001b0 9f 80 3f bd 9f 0e 96 bc be d5 fb 3a cf 80 f9 bd
       -0.046753522 -0.018317519 0.001921348 -0.121827714
0001c0 2d 68 97 bd 91 af 05 3d 52 55 16 bd 70 a1 24 be
       -0.07392917 0.032638136 -0.03670246 -0.16077209
0001d0 74 11 16 be 74 e3 a6 bb 87 34 2f bd d4 21 b3 bd
       -0.14655095 -0.0050930325 -0.042774703 -0.087466866
0001e0 6f 08 30 bd 92 7b 23 bd 51 d8 2f be 1b 68 ff bc
       -0.042976793 -0.039912768 -0.17172362 -0.031177571
0001f0 be 13 28 3d b8 6b 07 bc ff ae 88 bd f5 f1 0c 3d
       0.041034453 -0.008265428 -0.06674003 0.034410436

bn2.running_mean f4 [128]
000000 c8 88 21 bf cd ee 88 be 6c 1a be bd 38 5d 4c 3d
       -0.63099337 -0.2674469 -0.09282383 0.049893588
000010 fa 84 ca bd 36 78 8f bd 18 4d f0 bd 33 5d a4 bc
       -0.098886445 -0.0700535 -0.117334545 -0.020063972
000020 c2 15 61 3e 15 79 4b bf 76 ad a8 be ce 76 6c bd
       0.21980956 -0.7948163 -0.3294484 -0.05773049
000030 90 d0 f1 be 90 0b ef 3e f0 d3 67 be c6 78 93 3e
       -0.47229433 0.4668851 -0.22639441 0.2880308
000040 e1 41 f2 bd a7 ee cf 3e a3 04 12 be a1 c9 a5 3e
       -0.11828972 0.40611765 -0.14259581 0.32380393
000050 d3 30 9a be b7 5a c1 bd 07 06 e8 3e 89 32 ce bd
       -0.30115375 -0.094411306 0.45317098 -0.100682326
000060 0d 04 eb 3e 4d c7 34 be ee b4 1b be 60 8d d5 bd
       0.45901528 -0.17654152 -0.15205738 -0.10427356
000070 98 89 72 be d3 27 7f 3e 73 81 09 3f 6c 8e 4a bd
       -0.236853 0.24917535 0.5371315 -0.04945223
000080 e8 c3 81 3d ba 18 18 bf 48 2e ec be e7 70 a2 b9
       0.06336194 -0.5941273 -0.4612906 -0.00030983167
000090 f5 77 76 bd 4c c2 89 be b4 5f 2e be 03 aa b3 be
       -0.060172994 -0.2690605 -0.17028695 -0.35090646
0000a0 df 36 1d 3e c2 c4 e0 bd ef ae 67 bd 21 7c 42 bf
       0.15352963 -0.109750286 -0.056563314 -0.75970656
0000b0 c8 96 a8 be d5 f6 c7 be e0 1f 16 bf b8 ea 47 3e
       -0.32927537 -0.39055505 -0.5864239 0.19523132
0000c0 f9 e2 e9 be 6c 8d eb be bc c9 63 bd 45 5e 45 bd
       -0.4568098 -0.46006334 -0.05561231 -0.048185606
0000d0 27 24 11 bf 4d b1 c9 be 08 7e 87 3e 55 40 ea be
       -0.5669579 -0.39393082 0.26463342 -0.45752206
0000e0 b0 c9 18 3e f1 e9 db 3e 9a a5 c3 3e 22 4d 3f be
       0.14920688 0.4295192 0.3821228 -0.18681768
0000f0 ab 83 1a 3f 10 57 a2 3c a1 01 84 3e 35 12 d0 be
       0.6035716 0.019816905 0.25782493 -0.4063889
000100 5b 4f 31 3c 39 53 05 bf 3f 00 97 be 86 8e 94 bd
       0.0108221425 -0.5208011 -0.29492375 -0.07253747
000110 35 06 db bd d3 3d 80 3e 73 a8 5a 3d 63 a0 d0 3e
       -0.10694543 0.25047168 0.053383302 0.40747365
000120 88 7b 99 be d8 48 93 be 04 51 14 be d3 ff 88 3e
       -0.2997706 -0.28766513 -0.1448403 0.26757678
000130 8e 80 32 3e 4b 32 0a bf f3 f4 c8 be 77 1f 62 3e
       0.17431852 -0.5398299 -0.3924938 0.22082315
000140 91 5e 94 3e 72 b9 09 be c0 e2 e1 3e b7 13 ac 3d
       0.28978398 -0.13449648 0.4411831 0.08402198
000150 5f 68 6a be 6a 87 a8 3e cc 7c b2 be 7d 47 17 3f
       -0.22891377 0.32915813 -0.34860837 0.5909346
000160 74 f1 87 3d 03 77 47 be c3 3f fb bd e7 27 b9 3e
       0.066378504 -0.19478993 -0.12268021 0.36163256
000170 e2 67 21 be 54 a3 dc 3e 38 0f 4a 3e 7e 74 0a 3d
       -0.15762284 0.4309336 0.19732368 0.0338025
000180 4b 70 12 3f 75 44 7b bd 91 8d 44 be c2 8f d5 3e
       0.57202595 -0.061344583 -0.19194628 0.4171124
000190 ef c8 87 bd 96 5f 11 bf a5 6e c3 bd 3b da 58 bb
       -0.06630122 -0.5678648 -0.09542588 -0.003308906
0001a0 a6 1e 54 be c9 ec e0 3d de c9 5a bc 56 56 56 3e
       -0.20714816 0.10982663 -0.013353793 0.20931372
0001b0 a9 e2 c2 3e 7f 5c 84 bd ec 09 50 3d 1c da a0 3e
       0.38063553 -0.06462955 0.050790712 0.31416404
0001c0 21 b0 36 3e db a1 4a 3e 58 05 e2 3e 05 7f d6 bd
       0.17840625 0.19788305 0.44144702 -0.10473446
0001d0 b7 b7 04 3f 5c 6f e1 bd 20 8b 99 3c 8b 1c ed be
       0.51842827 -0.11007568 0.018743098 -0.4631084
0001e0 53 e0 07 bf 4d 8e c0 3e cc f1 da 3d c9 c3 7d 3e
       -0.53076667 0.37608567 0.1069065 0.24781717
0001f0 e9 0c e8 be b1 c4 cf be 45 2e b9 3e 58 11 50 be
       -0.4532235 -0.4057975 0.36168113 -0.20319116

bn2.running_var f4 [128]
000000 7e 1d 76 3e 81 fe 81 3e 19 74 7e 3e a6 ae 22 3e
       0.24034688 0.25389484 0.24848975 0.15886936
000010 e7 5f 31 3e f6 9a 0a 3e 75 14 8c 3e e9 aa 17 3e
       0.1732174 0.13535675 0.27359357 0.14811291
000020 f5 cc d4 3d 27 67 6b 3e 9e 76 37 3e b1 72 4f 3e
       0.10390655 0.22988568 0.17916343 0.20258595
000030 0a 46 03 3e 64 f9 ea 3d 0f da 3b 3e c5 99 a4 3d
       0.12819687 0.11473349 0.18344902 0.08037142
000040 08 4a 10 3e 5e 3c b8 3e 85 d1 91 3e 3f d9 2d 3e
       0.1409074 0.35983557 0.28480163 0.16977404
000050 bb 1f 10 3e e4 33 e3 3e 5a 20 61 3e c6 18 36 3e
       0.14074604 0.44375527 0.21984997 0.17782888
000060 4d 5f 25 3e 61 f4 bc 3e c0 c7 1d 3e 73 e5 37 3e
       0.16149636 0.36905196 0.1540823 0.17958622
000070 5f ec 3a 3e 40 ba 8f 3e 29 46 2c 3e 70 d6 68 3e
       0.18254231 0.28071785 0.16823639 0.22738051
000080 f3 60 0b 3e 08 91 d6 3e b6 f5 5a 3e fa e8 20 3e
       0.13611202 0.41907525 0.21382794 0.15713874
000090 03 29 dd 3d 31 d3 6f 3e a8 4a 81 3e 1d b2 26 3e
       0.10798838 0.23420407 0.2525227 0.16278882
0000a0 10 3b e0 3d db 77 0e 3e 6f 9a 9c 3e 87 c9 4e 3e
       0.10948765 0.13912909 0.30586573 0.20194064
0000b0 77 19 bb 3d 51 e4 aa 3e 16 9b 7c 3e 9f 1e 98 3e
       0.091357164 0.33377317 0.24668536 0.29710862
0000c0 02 d3 82 3e 57 00 0a 3e b7 44 45 3e ae 27 4c 3e
       0.2555161 0.13476692 0.19264494 0.19937012
0000d0 40 2a 33 3e 4a 3b a3 3e 91 77 9c 3d 2e ef 0e 3e
       0.17496586 0.3188117 0.07639993 0.13958427
0000e0 d0 ab 13 3e e0 a7 6f 3e 76 39 9a 3e da 06 a9 3e
       0.1442101 0.23403883 0.30121964 0.3301304
0000f0 2c 0c 8d 3e 31 1b f1 3d 81 fc 74 3e c2 78 d9 3e
       0.2754835 0.117727645 0.23924448 0.42474943
000100 f4 36 ef 3d 2e ea 99 3e 0a 58 9e 3d 16 b4 60 3e
       0.11680403 0.30061477 0.07731636 0.21943697
000110 83 3b 94 3e ea 32 ef 3d f3 a4 40 3e b8 c5 49 3e
       0.28951654 0.11679633 0.18812923 0.1970433
000120 84 0b b4 3e 1d 61 c0 3e 5f 98 c9 3d c2 3d 0d 3e
       0.35165036 0.37574092 0.098435156 0.1379309
000130 0c 81 30 3e e6 c6 3c 3e ff ff 94 3e 6b d0 b2 3d
       0.17236727 0.18435249 0.2910156 0.08731159
000140 55 15 35 3e ce 75 48 3e 87 87 ae 3e ad 8c 6e 3e
       0.17683919 0.19576189 0.34087774 0.23295851
000150 86 f2 9d 3e 74 98 9a 3d 88 e7 a9 3e 07 65 43 3e
       0.30849093 0.075486094 0.33184457 0.19081508
000160 8a f0 7e 3e c2 2b 1b 3e 0c d5 e8 3d cb 50 29 3e
       0.24896446 0.15153411 0.113687605 0.16534726
000170 0e a9 0f 3e ca 88 09 3e 76 7e 6d 3e 7d ae 31 3e
       0.14029333 0.13431087 0.23192772 0.17351718
000180 24 a7 4f 3e 27 5e 29 3e 73 8c 24 3e fc 35 51 3e
       0.20278603 0.16539823 0.16069202 0.2043075
000190 45 62 1c 3e 15 43 83 3e 5d 11 38 3e 6b 6a 8d 3e
       0.15271862 0.25637117 0.17975374 0.27620253
0001a0 45 90 9a 3e 11 26 12 3e 72 36 27 3e 9a b3 3f 3e
       0.30188194 0.14272334 0.16329363 0.18720856
0001b0 e8 90 43 3e f8 c6 54 3e 06 19 30 3e 11 09 23 3e
       0.19098246 0.20779026 0.17197046 0.15921427
0001c0 0c a2 ce 3d 37 ed 08 3e a3 1e 16 3e 02 33 fa 3d
       0.10089502 0.1337174 0.14660124 0.1221676
0001d0 ed c1 2c 3e c0 73 34 3e 4c 1b 09 3e da 5e 62 3e
       0.16870852 0.1762228 0.13389319 0.22106495
0001e0 b8 02 b5 3e 89 1f ca 3e 33 c7 c5 3d cd 3c 90 3e
       0.35353637 0.39477184 0.09657135 0.28171387
0001f0 6b b7 26 3e 3c c2 ae 3d 86 f9 34 3e df 5e 40 3e
       0.16280906 0.08533141 0.1767331 0.1878619
