models/checkpoint_critic_1.pth (torch, 86176 bytes, 9 tensors)

fc1.weight f4 [128, 24]
-0.33658716 -0.6993077 0.10735362 -0.2492975 0.13783881 0.8012156 0.026264133 -0.2445848
-0.5100848 -0.7763994 -0.096785575 -0.099941075 -0.082283914 0.72624534 -0.057845905 -0.063067704
-0.48761585 -0.69606435 -0.25795552 0.45456302 -0.16247839 -0.29002634 -0.21816495 0.31944138
-0.28356478 0.9843174 -0.052815482 0.07677108 -0.35472748 1.3548335 0.0920563 0.18713778
0.18051498 1.0714028 -0.051449127 0.17596756 0.0359955 0.6962861 -0.06793853 0.26896983
-0.022160973 1.3315359 0.010144311 0.13818902 0.5054995 -0.020957991 -0.045515217 0.13963611
-0.68719304 -0.43731087 -0.1396697 0.39074808 0.033931218 -0.8709124 -0.025012508 0.43428203
-0.49266082 -0.72199714 -0.12831746 0.31903693 0.11736858 -0.06577607 -0.019234544 0.33456016
-0.4569803 -0.75422406 -0.2758158 0.26595557 -0.27806768 -0.0073617473 -0.23296897 0.1465261
-0.08686549 0.58608735 -0.01201333 -0.2532664 -0.30460942 -0.786677 -0.04324508 -0.16007903
0.25349712 0.15312445 -0.00688346 -0.0011212894 0.018689362 -0.6030434 -0.0720199 -0.074685484
0.118433565 0.08171188 -0.022391932 0.37706646 0.12284507 -2.21747 -0.014127998 0.3538925
0.6794256 0.06354562 -0.11641558 0.30662856 -0.046395957 0.40914446 -0.1533033 0.32565716
0.55565625 0.16877751 -0.3009932 0.31670702 0.03868777 -0.09786507 -0.3078081 0.44640547
0.75617766 0.6047596 -0.0551147 0.41438404 0.1944218 -0.54116035 0.037904236 0.4064284
-0.19328924 -0.024262376 0.12474431 -0.016478587 0.12604283 -0.20444001 0.21767138 -0.010293515
0.04200854 -0.12850367 -0.1985015 -0.24948162 0.23999916 -0.43020624 -0.15480755 -0.22780594
0.13260622 -0.52344507 0.16321827 -0.99734104 0.08961558 -0.47377 0.20160843 -0.9738385
0.3097707 0.31085384 0.21618754 -0.13125885 -0.14974068 0.44976977 0.22358792 -0.012960732
0.36646706 0.116584055 0.026911296 -0.5553829 0.061069097 0.567565 0.15740778 -0.454198
0.8845506 0.11121228 0.104118556 -0.40986902 0.07118484 0.84649324 0.14416325 -0.34027672
0.4440215 0.4035944 -0.045747474 -0.17700621 -0.28428257 -0.84440064 -0.13602899 -0.10226004
0.20313434 -0.3869548 0.13049707 -0.42353973 -0.41934013 0.2617361 0.12492366 -0.43033102
0.45703003 -0.51773167 -0.010214266 -0.1735828 -0.25637934 0.901963 0.07986536 -0.12466546
-0.23260158 -0.8620759 0.016346917 -0.008157943 -0.64139014 0.67051655 0.0028300434 -0.016850254
-0.07189113 -0.26430222 0.06532918 -0.043110523 -0.116384365 0.010804239 -0.05984342 -0.0024623016
0.14353801 -0.10705489 -0.06460809 0.025178663 0.6209874 -0.058640417 0.030439872 0.022510314
0.32399788 0.46117538 -0.032611765 -0.07829633 -0.20057094 -1.0812783 0.04189136 -0.08792715
-0.05201826 0.5160371 0.145166 0.27723965 -0.26507887 -0.7487668 0.115412 0.26570252
-0.45970362 0.36671212 0.008075657 -0.13830286 -0.04371689 -0.9510892 -0.100191414 -0.06684817
0.29520592 -1.5178859 -0.010282536 0.05653708 0.205625 0.13164605 -0.008859127 -0.026812688
0.3790411 -1.7119578 -0.031671345 -0.1059655 0.03797705 -0.1074124 -0.0066131987 -0.097086236
00000000: 2755 acbe d405 33bf 37dc db3d d847 7fbe
00000010: 9e25 0d3e 771c 4d3f e127 d73c 7074 7abe
00000020: eb94 02bf 1cc2 46bf 8437 c6bd e8ad ccbd
00000030: 7884 a8bd 37eb 393f d4ef 6cbd a429 81bd
00000040: c9a8 f9be 4631 32bf bf12 84be 7cbc e83e
00000050: bc60 26be 557e 94be a266 5fbe d28d a33e
00000060: 672f 91be 3afc 7b3f 0c55 58bd 283a 9d3d
00000070: d79e b5be 2f6b ad3f 0388 bc3d 0ca1 3f3e
00000080: ebd8 383e ba23 893f 52bc 52bd d730 343e
00000090: 0470 133d ce3f 323f 5b23 8bbd 6ab6 893e
000000a0: ee8a b5bc c56f aa3f 5334 263c 6c81 0d3e
000000b0: 6a68 013f 18b0 abbc 2a6e 3abd c5fc 0e3e
000000c0: e2eb 2fbf 36e7 dfbe 9305 0fbe 2210 c83e
000000d0: 76fb 0a3d 1df4 5ebf 08e7 ccbc 375a de3e
000000e0: 0a3e fcbe ced4 38bf a765 03be cf58 a33e
000000f0: f05e f03d 9bb5 86bd c391 9dbc 784b ab3e
00000100: 52f9 e9be d414 41bf bb37 8dbe 542b 883e
00000110: e35e 8ebe d03a f1bb 6b8f 6ebe f00a 163e
00000120: 89e6 b1bd d209 163f 8fd3 44bc 22ac 81be
00000130: c4f5 9bbe aa63 49bf c121 31bd c2eb 23be
00000140: 60ca 813e a8cc 1c3e a68e e1bb 3bf8 92ba
00000150: 6f1a 993c 0d61 1abf 2b7f 93bd b4f4 98bd
00000160: 4c8d f23d 8f58 a73d 496f b7bc db0e c13e
00000170: 3296 fb3d 07eb 0dc0 1e79 67bc 6631 b53e
00000180: d6ee 2d3f 3524 823d 4b6b eebd 6bfe 9c3e
00000190: b009 3ebd 627b d13e 8afb 1cbe 89bc a63e
000001a0: 7d3f 0e3f 03d4 2c3e c81b 9abe 6c27 a23e
000001b0: 1177 1e3d 7b6d c8bd 0699 9dbe 428f e43e
000001c0: dc94 413f 86d1 1a3f f4bf 61bd 252a d43e
000001d0: 8216 473e 7c89 0abf 7941 1b3d 6217 d03e
000001e0: 9ded 45be e4c1 c6bc f279 ff3d 1afe 86bc
000001f0: 5f11 013e b958 51be 3fe5 5e3e 22a6 28bc
00000200: 2611 2c3d 7796 03be fa43 4bbe 1c78 7fbe
00000210: 57c2 753e fe43 dcbe df85 1ebe f645 69be
00000220: edc9 073e 7f00 06bf b122 273e be51 7fbf
00000230: 6088 b73d fb91 f2be 7172 4e3e 7b4d 79bf
00000240: 449a 9e3e 3c28 9f3e 4460 5d3e b868 06be
00000250: 9f55 19be 3948 e63e 3bf4 643e 4059 54bc
00000260: 92a1 bb3e 9fc3 ee3d 1475 dc3c 932d 0ebf
00000270: 9723 7a3d f14b 113f 812f 213e a48c e8be
00000280: e871 623f 44c3 e33d 1c3c d53d 5ada d1be
00000290: 5bc9 913d c8b3 583f 889f 133e c038 aebe
000002a0: c956 e33e eda3 ce3e b461 3bbd 1e41 35be
000002b0: 7c8d 91be a42a 58bf 2f4b 0bbe b66d d1bd
000002c0: 7302 503e f11e c6be 06a1 053e 33da d8be
000002d0: c0b3 d6be 4602 863e fad7 ff3d 5954 dcbe
000002e0: d7ff e93e 108a 04bf bd59 27bc b1bf 31be
000002f0: 2744 83be 0ce7 663f 7390 a33d 9b50 ffbd
00000300: 1c2f 6ebe 02b1 5cbf f8e9 853c e5a8 05bc
00000310: 2532 24bf f9a6 2b3f 4078 393b 8b09 8abc
00000320: a83b 93bd 9f52 87be 4ecb 853d a994 30bd
00000330: ed5a eebd 4304 313c 601e 75bd 915e 21bb
00000340: a1fb 123e 983f dbbd 3f51 84bd 7c43 ce3c
00000350: 08f9 1e3f ef30 70bd 0a5d f93c 8d67 b83c
00000360: 0de3 a53e 2e1f ec3e ea93 05bd d459 a0bd
00000370: 7862 4dbe 5467 8abf 4696 2b3d 2613 b4bd
00000380: 1911 55bd 021b 043f 65a6 143e 5bf2 8d3e
00000390: 6bb8 87be 2eaf 3fbf 205d ec3d 290a 883e
000003a0: 465e ebbe b1c1 bb3e c34f 043c 449f 0dbe
000003b0: 7b10 33bd 957a 73bf 2831 cdbd b1e7 88bd
000003c0: 3b25 973e 164a c2bf 1578 28bc 6d93 673d
000003d0: 5c8f 523e 39ce 063e df25 11bc 48a6 dbbc
000003e0: ad11 c23e 6f21 dbbf d0b9 01bd 7104 d9bd
000003f0: d38d 1b3d 08fb dbbd 88b3 d8bb 26d5 c6bd

fc1.bias f4 [128]
-0.051343307 0.01838202 -0.054630075 -0.19985363 -0.021129033 0.09959745 -0.023750182 -0.10051167
0.0064559258 0.037257146 -0.056963217 -0.15828194 -0.10942115 -0.033283632 0.07352314 0.18153337
0.0037783824 0.073065735 0.11747153 -0.08901678 -0.06772185 0.1353889 0.14619914 0.048371438
-0.15764613 0.115854524 -0.16868901 0.1020057 0.024195047 0.06596988 -0.19896029 -0.071752466
0.08650479 0.15714926 -0.058446996 0.18209699 -0.045553744 -0.123110995 -0.08839905 0.012471205
-0.036261257 0.09879748 -0.112968385 -0.058052897 -0.2020005 0.16660531 -0.038406555 -0.16094728
-0.0098435 -0.00037808655 0.056689266 -0.02244536 0.12844345 -0.07043376 -0.06110183 -0.048456542
0.036465906 0.16356394 -0.009390951 0.15705009 0.16035955 -0.10626046 -0.01757066 -0.0963741
0.08492033 -0.071757555 0.062286135 0.012201023 -0.13400947 -0.137211 -0.19935791 -0.11421725
0.057006 0.012475973 0.15352598 -0.1794837 -0.0059374985 -0.18303867 0.0012364297 0.074453324
-0.18306762 0.180297 -0.063394435 0.18087132 -0.03423506 0.11580396 0.18556608 -0.074363455
-0.049581412 0.107066326 -0.17476368 0.120839104 -0.12809159 0.18958275 -0.13378239 -0.08399359
0.1523698 -0.088859476 0.17498156 0.14045534 0.1865787 -0.19786377 0.0022167086 -0.067028664
0.048629824 -0.15411428 0.083644226 -0.009663653 -0.09647748 -0.18363632 0.106771104 -0.073838696
0.15062177 0.036351956 0.062080078 -0.030957699 -0.02827964 -0.06937939 -0.17675823 0.12831432
-0.12850556 0.11897861 -0.06885576 0.12783575 0.17495349 -0.12486785 0.16859274 0.0049820724
00000000: 5c4d 52bd e495 963c c9c3 5fbd 6ea6 4cbe
00000010: cb16 adbc bff9 cb3d be8f c2bc 10d9 cdbd
00000020: 3b8c d33b f39a 183d 4352 69bd a914 22be
00000030: 3218 e0bd 6b54 08bd 4d93 963d e2e3 393e
00000040: bd9e 773b 7da3 953d ea94 f03d 6e4e b6bd
00000050: c1b1 8abd 63a3 0a3e 3ab5 153e 2121 463d
00000060: fd6d 21be 2345 ed3d d0bc 2cbe 5de8 d03d
00000070: b134 c63c 371b 873d 3fbc 4bbe f5f2 92bd
00000080: 6c29 b13d bceb 203e 1e66 6fbd a277 3a3e
00000090: 9096 3abd 9e21 fcbd 900a b5bd 0654 4c3c
000000a0: af86 14bd 5556 ca3d f85b e7bd e0c8 6dbd
000000b0: 38d9 4ebe 959a 2a3e 3150 1dbd 5dcf 24be
000000c0: a246 21bc eb39 c6b9 0133 683d 55df b7bc
000000d0: ae86 033e 933f 90bd ea45 7abd 5e7a 46bd
000000e0: 465d 153d 4e7d 273e 81dc 19bc bdd1 203e
000000f0: 4b35 243e 169f d9bd 58f0 8fbc c95f c5bd
00000100: b6ea ad3d a0f5 92bd bf1f 7f3d cde6 473c
00000110: c739 09be 0a81 0cbe 7b24 4cbe bcea e9bd
00000120: 207f 693d 0668 4c3c ea35 1d3e 93ca 37be
00000130: 598f c2bb 7d6e 3bbe b20f a23a fc7a 983d
00000140: 1476 3bbe c79f 383e f1d4 81bd 5536 393e
00000150: 103a 0cbd a02a ed3d 0905 3e3e de4b 98bd
00000160: e115 4bbd 9745 db3d 40f5 32be 7e7a f73d
00000170: 712a 03be fb21 423e 40fe 08be d504 acbd
00000180: d406 1c3e f5fb b5bd 5e2e 333e 86d3 0f3e
00000190: 7d0e 3f3e cd9c 4abe 3346 113b 5346 89bd
000001a0: 1130 473d 22d0 1dbe aa4d ab3d 4c54 1ebc
000001b0: fc95 c5bd 290b 3cbe cfaa da3d be38 97bd
000001c0: 983c 1a3e cae5 143d ae47 7e3d 009b fdbc
000001d0: b4aa e7bc c816 8ebd 1c00 35be d464 033e
000001e0: f696 03be 0fab f33d 4004 8dbd 60e7 023e
000001f0: 0227 333e b7ba ffbd 93a3 2c3e a740 a33b

bn.weight f4 [128]
0.6028535 0.7578311 0.68603915 0.78497934 0.55497617 0.48723036 0.6080823 0.46848235
0.6300072 0.612676 0.7681599 0.52333003 0.5752498 0.6742755 0.53622144 0.9079072
0.3889628 0.5764553 1.3042195 0.47149187 0.8084048 0.70976424 0.48577216 0.81581855
1.4393628 0.44381157 0.5058434 0.49661043 0.5748526 0.8774021 0.41494986 0.6563032
0.88869405 1.051634 0.47034308 1.5162328 1.0036724 0.71399325 0.6892625 1.4289834
1.2281641 0.674016 0.69117993 0.5013017 1.1623082 0.7134288 0.55963737 0.48998064
0.48366833 0.59099615 0.6638947 0.7740206 0.45353213 0.6698246 0.66582143 0.7352825
0.6542736 0.72368246 0.6514654 0.5477222 0.58451134 0.54052645 0.7600869 0.55110383
0.5769995 0.5359801 0.5061565 0.5735915 0.43485585 0.915551 0.7429471 0.5973478
0.57234687 0.4784623 0.6610223 0.7149928 2.1454039 0.84479606 0.7754428 0.9778825
1.4254096 0.90420026 0.43387362 0.70004994 1.2612991 0.52698964 0.62901264 0.64527553
0.8046107 0.5242155 0.5277699 0.7240289 0.548786 0.61243606 1.1036046 0.59747934
1.0511588 0.50463593 0.6848926 0.58352435 0.81011885 0.60045946 1.3597692 1.0074219
0.46864268 1.0161641 1.1229376 0.6318362 0.7145659 0.59160274 0.5944688 0.6985671
0.64230233 0.67598313 0.5725536 0.55049807 0.7578054 0.6498501 0.70004797 0.5107435
0.66212374 0.7397754 0.94800985 0.50233215 0.62497175 0.61534244 1.0100373 0.49971846
00000000: 9b54 1a3f 3801 423f 43a0 2f3f 68f4 483f
00000010: eb12 0e3f 4276 f93e 48ab 1b3f ebdc ef3e
00000020: 2748 213f 56d8 1c3f 21a6 443f f5f8 053f
00000030: 9243 133f 529d 2c3f cf45 093f 9b6c 683f
00000040: 2226 c73e 9392 133f aaf0 a63f 6267 f13e
00000050: 9ef3 4e3f 1cb3 353f 21b7 f83e 7cd9 503f
00000060: 0a3d b83f 453b e33e f47e 013f b943 fe3e
00000070: 8a29 133f 6d9d 603f 4f74 d43e 7d03 283f
00000080: 7481 633f f19b 863f cfd0 f03e eb13 c23f
00000090: 5678 803f 43c8 363f 8273 303f eee8 b63f
000000a0: 7b34 9d3f 508c 2c3f 2bf1 303f 4f55 003f
000000b0: 84c6 943f 45a3 363f 6544 0f3f bede fa3e
000000c0: 60a3 f73e 864b 173f 01f5 293f 3726 463f
000000d0: 5d35 e83e a079 2b3f 4673 2a3f 793b 3c3f
000000e0: 7a7e 273f 4143 393f 70c6 263f 8637 0c3f
000000f0: 89a2 153f f15f 0a3f 0e95 423f 2415 0d3f
00000100: 3db6 133f fe35 093f 7993 013f e4d6 123f
00000110: 6da5 de3e 8d61 6a3f c831 3e3f c9eb 183f
00000120: 5385 123f 03f9 f43e c238 293f c509 373f
00000130: 4c4e 0940 8e44 583f 6b83 463f 8256 7a3f
00000140: d273 b63f ab79 673f af24 de3e 7936 333f
00000150: 4072 a13f cbe8 063f f906 213f c730 253f
00000160: f8fa 4d3f fd32 063f ee1b 073f f559 393f
00000170: 3d7d 0c3f 9cc8 1c3f ea42 8d3f 68f4 183f
00000180: 5f8c 863f d22f 013f 1f55 2f3f da61 153f
00000190: f363 4f3f b6b7 193f eb0c ae3f 33f3 803f
000001a0: eff1 ef3e aa11 823f 6bbc 8f3f 04c0 213f
000001b0: caed 363f 4773 173f 1b2f 183f 4bd5 323f
000001c0: ed6d 243f 3b0d 2d3f df92 123f 71ed 0c3f
000001d0: 89ff 413f 935c 263f 5836 333f 16c0 023f
000001e0: f180 293f ec61 3d3f c6b0 723f d798 003f
000001f0: 26fe 1f3f 1587 1d3f e748 813f 19db ff3e

bn.bias f4 [128]
-0.04278569 -0.2305269 -0.29815027 -0.7013902 -0.49062157 -0.26393968 -0.633179 -0.39576107
0.20889336 -0.5290729 -0.5209095 -0.22900727 0.11215135 -0.4900434 -0.23061249 0.28739765
-0.2345101 -0.16582404 -0.5801404 -0.14672585 -0.6320136 -0.4626049 0.10834186 -0.72485876
-1.2168727 -0.3558684 -0.36808982 -0.055113245 -0.5922129 0.06777047 -0.2639778 -0.3989208
-0.6351082 -0.28771746 -0.11224098 -0.029462496 -0.20485753 -0.27797577 -0.44226345 -0.60026884
-1.1059177 -0.36773223 -0.45563725 -0.059517022 0.058345146 -0.73886484 -0.4644605 -0.13233232
-0.06284052 -0.47900593 -0.39137554 -0.30157992 0.22530411 -0.5465716 -0.29972786 -0.44058728
-0.49246466 -0.27721423 -0.57526857 -0.53575224 -0.251043 -0.45418665 -0.08561273 0.3494886
-0.5677053 -0.29562372 -0.31166002 -0.021712292 -0.07433284 -0.5255574 -0.49561808 0.04078355
0.28349966 -0.44925794 -0.31700566 -0.42299902 -0.20011853 -0.24666178 -0.635535 -1.1142583
-0.21481417 -0.9940922 -0.25354216 -0.84410167 0.43319264 -0.25773644 -0.24573708 0.46020395
-1.1928362 -0.015021795 -0.28983682 0.46513966 0.12568685 -0.14457346 0.12870637 -0.44483608
-0.22355619 -0.20914169 -0.75246674 -0.35659716 -0.5276322 -0.47213253 -0.60120404 -0.5480248
-0.22867459 -0.55023783 -0.3766341 -0.4695399 -0.27039737 -0.41367713 -0.24210316 -0.8483386
-0.6803999 -0.88357234 -0.1970379 -0.49760312 -0.42890775 -0.29053122 -0.6504372 -0.12605669
-0.31966364 -0.38650867 -0.44251162 -0.025484202 -0.4081412 -0.38745406 -0.35569778 -0.4083653
00000000: 0c40 2fbd 3e0f 6cbe 27a7 98be 4f8e 33bf
00000010: c032 fbbe 1a23 87be 0518 22bf 32a1 cabe
00000020: 24e8 553e 5271 07bf 535a 05bf e280 6abe
00000030: 9baf e53d f8e6 fabe ae25 6cbe c925 933e
00000040: 6a23 70be c7cd 29be 1584 14bf 4d3f 16be
00000050: a5cb 21bf 8dda ecbe 56e2 dd3d 5890 39bf
00000060: 7cc2 9bbf 6234 b6be 4576 bcbe 6dbe 61bd
00000070: 449b 17bf 3fcb 8a3d 1928 87be 593f ccbe
00000080: 7396 22bf b44f 93be 99de e5bd 555b f1bc
00000090: 2cc6 51be d752 8ebe 5b70 e2be 38ab 19bf
000000a0: b68e 8dbf 6647 bcbe 4949 e9be 1fc8 73bd
000000b0: 52fb 6e3d 3f26 3dbf c4cd edbe 2082 07be
000000c0: 88b2 80bd 4440 f5be 6062 c8be af68 9abe
000000d0: 1fb6 663e 1eec 0bbf ee75 99be a894 e1be
000000e0: 5424 fcbe 06ef 8dbe cd44 13bf 0f27 09bf
000000f0: b588 80be 278b e8be ba55 afbd 2bf0 b23e
00000100: 2255 11bf fe5b 97be e791 9fbe fadd b1bc
00000110: d13b 98bd ee8a 06bf a7c1 fdbe a70c 273d
00000120: de26 913e 2305 e6be 914e a2be 5493 d8be
00000130: dfeb 4cbe e894 7cbe 6cb2 22bf 04a0 8ebf
00000140: 3ff8 5bbe d47c 7ebf 47d0 81be 0c17 58bf
00000150: 6dcb dd3e 08f6 83be 80a2 7bbe da9f eb3e
00000160: dbae 98bf fa1d 76bc 7e65 94be c926 ee3e
00000170: 0eb4 003e 110b 14be 9acb 033e 8ec1 e3be
00000180: eaeb 64be 3d29 56be a9a1 40bf e793 b6be
00000190: e712 07bf 5bbb f1be 82e8 19bf 5a4b 0cbf
000001a0: ac29 6abe 63dc 0cbf 2fd6 c0be 8967 f0be
000001b0: 8671 8abe 7dcd d3be e4e9 77be b82c 59bf
000001c0: b02e 2ebf cc31 62bf 4ec4 49be d6c5 febe
000001d0: cc99 dbbe 82c0 94be 0d83 26bf 0115 01be
000001e0: f4aa a3be 77e4 c5be e290 e2be 3fc4 d0bc
000001f0: e2f7 d0be 6160 c6be 051e b6be 4215 d1be

bn.running_mean f4 [128]
16.331846 2.9393625 12.312696 -13.536709 -20.219414 -1.551393 -7.8820662 -7.934776
4.2792664 -6.8219624 -3.5220041 12.439535 16.033306 7.485415 -1.7869034 2.4255922
13.940373 9.69249 0.5476401 -2.3856633 1.9993186 9.226461 -1.8423783 2.2173884
-0.8255539 -16.492249 -3.8783913 -4.6849656 -6.6116533 0.26058558 -17.172182 12.792116
-1.7110933 6.050916 8.910713 -0.6848054 5.044408 8.587111 15.736986 0.12292068
0.37642148 15.030849 1.8728243 3.8576343 1.1113245 -2.3573744 4.215264 3.2225587
0.7073216 -2.5360565 14.211953 0.58574784 4.349698 2.2190082 10.647881 5.997699
5.01212 11.335087 -1.2471529 -6.063182 1.8639401 -19.756287 7.965399 15.1496935
-20.794464 9.642708 -13.444926 -0.28795555 12.559635 0.9750869 8.32207 3.5604541
15.5850725 -6.245291 3.2894511 0.09491161 -0.35460964 10.33148 -4.9084907 -5.5053635
0.41643727 -10.951178 1.2968446 -15.114278 0.2991079 15.541791 -9.767897 13.639688
-15.333425 4.3405414 -3.6153767 0.54671717 -1.175797 8.131601 2.6518617 0.7449068
0.36002833 -6.6867456 -10.825198 -19.703438 -2.7091374 -11.68969 -0.8559967 2.8882027
-2.2063146 0.5803528 2.3654811 -3.0930908 -6.68543 0.75427073 5.529579 -5.0556955
-17.72057 -25.087568 -2.72593 -11.041162 -0.55613434 6.3544397 -17.670282 -0.35244763
6.8204 -3.907003 -0.49553287 0.17917566 8.764667 8.959961 3.1672778 -4.318442
00000000: 9fa7 8241 841e 3c40 ce00 4541 5c96 58c1
00000010: 5cc1 a1c1 0c94 c6bf e339 fcc0 afe9 fdc0
00000020: c0ef 8840 844d dac0 8468 61c0 5608 4741
00000030: 3644 8041 8588 ef40 40b9 e4bf e73c 1b40
00000040: c50b 5f41 7014 1b41 2432 0c3f b5ae 18c0
00000050: ace9 ff3f 969f 1341 0dd3 ebbf b1e9 0d40
00000060: 8057 53bf 20f0 83c1 9037 78c0 3deb 95c0
00000070: aa92 d3c0 796b 853e a160 89c1 82ac 4c41
00000080: 1b05 dbbf 1ba1 c140 4892 0e41 684f 2fbf
00000090: ca6b a140 cf64 0941 b2ca 7b41 d6bd fb3d
000000a0: 51ba c03e 5c7e 7041 b5b8 ef3f 7be3 7640
000000b0: e23f 8e3f 39df 16c0 71e3 8640 673e 4e40
000000c0: 0713 353f c04e 22c0 2964 6341 92f3 153f
000000d0: ba30 8b40 3b04 0e40 b85d 2a41 26ed bf40
000000e0: 4963 a040 845c 3541 b5a2 9fbf 9605 c2c0
000000f0: 9795 ee3f e00c 9ec1 8ce4 fe40 2565 7241
00000100: 105b a6c1 8848 1a41 6b1e 57c1 e96e 93be
00000110: 44f4 4841 4c9f 793f 3327 0541 7bde 6340
00000120: 755c 7941 6dd9 c7c0 5e86 5240 0561 c23d
00000130: 658f b5be be4d 2541 5b12 9dc0 f02b b0c0
00000140: 4437 d53e 0638 2fc1 01ff a53f 15d4 71c1
00000150: ac24 993e 2dab 7841 4e49 1cc1 293c 5a41
00000160: b555 75c1 b7e5 8a40 5562 67c0 a8f5 0b3f
00000170: 8480 96bf 0a1b 0241 1ab8 2940 36b2 3e3f
00000180: a255 b83e d2f9 d5c0 0334 2dc1 a4a0 9dc1
00000190: 8262 2dc0 f808 3bc1 9a22 5bbf 50d8 3840
000001a0: 4234 0dc0 0092 143f 0b64 1740 33f5 45c0
000001b0: 0bef d5c0 e317 413f 50f2 b040 42c8 a1c0
000001c0: bac3 8dc1 57b3 c8c1 a375 2ec0 99a8 30c1
000001d0: d25e 0ebf 9257 cb40 bd5c 8dc1 0474 b4be
000001e0: b840 da40 560c 7ac0 7cb6 fdbe d379 373e
000001f0: 133c 0c41 005c 0f41 aeb4 4a40 ad30 8ac0

bn.running_var f4 [128]
109.271706 46.572548 130.27533 43.251305 146.85861 140.70654 151.4357 66.35459
5.12922 48.51573 51.15617 80.914604 83.15197 157.06862 103.925156 16.15043
109.87021 66.08984 8.097426 64.79536 79.04491 85.82372 8.291739 66.076164
7.6100802 69.46973 24.059435 14.661971 108.398506 4.1212683 123.427345 122.67318
11.184883 11.20073 27.412289 5.993953 35.720455 76.958435 131.40584 2.055487
44.21612 108.47296 280.81924 12.283557 3.713568 76.44033 76.320915 10.942086
56.11319 66.44965 127.57753 9.88068 45.02369 63.144714 81.0973 82.94583
34.415424 61.684372 226.28745 97.20356 36.0809 101.65675 32.503773 42.10617
120.901596 53.432365 74.580414 54.370205 62.267117 62.33654 86.66358 4.375058
71.84728 21.386122 110.12834 67.46156 617.3302 43.647285 26.45548 32.1372
2.315991 29.008604 59.517017 62.833565 1.3339934 97.68183 119.85958 19.024319
30.904032 46.06487 81.88069 2.2618887 5.838952 53.626163 7.7200055 61.773937
12.156974 77.05706 74.04083 93.51612 67.630325 47.634026 14.544852 16.699347
354.15115 39.059177 40.477417 62.33664 108.76817 16.707544 144.61998 10.700572
64.47376 77.677505 204.1945 362.83942 92.03435 28.506968 136.79897 34.82672
40.337685 75.273575 6.799532 47.414864 27.335424 63.69479 17.546936 16.936377
00000000: 1d8b da42 4a4a 3a42 7c46 0243 5601 2d42
00000010: cedb 1243 e0b4 0c43 8a6f 1743 8db5 8442
00000020: 9222 a440 1c10 4242 eb9f 4c42 47d4 a142
00000030: cf4d a642 9111 1d43 aed9 cf42 1534 8141
00000040: 8cbd db42 002e 8442 0f8f 0141 3997 8142
00000050: fe16 9e42 bfa5 ab42 f7aa 0441 ff26 8442
00000060: c785 f340 80f0 8a42 b979 c041 6f97 6a41
00000070: 09cc d842 6ee1 8340 cdda f642 ab58 f542
00000080: 48f5 3241 3136 3341 5e4c db41 77ce bf40
00000090: bfe1 0e42 b8ea 9942 e567 0343 198d 0340
000000a0: 4fdd 3042 28f2 d842 dd68 8c43 7389 4441
000000b0: 19ab 6d40 73e1 9842 4fa4 9842 c912 2f41
000000c0: e873 6042 39e6 8442 b227 ff42 4417 1e41
000000d0: 4218 3442 3094 7c42 d131 a242 44e4 a542
000000e0: 65a9 0942 ccbc 7642 9649 6243 3968 c242
000000f0: d752 1042 4250 cb42 dd03 0242 b86c 2842
00000100: 9ecd f142 beba 5542 2c29 9542 177b 5942
00000110: 8711 7942 9e58 7942 c153 ad42 7a00 8c40
00000120: cfb1 8f42 c716 ab41 b641 dc42 52ec 8642
00000130: 2255 1a44 d296 2e42 d3a4 d341 7e8c 0042
00000140: 3239 1440 9f11 e841 6d11 6e42 9255 7b42
00000150: 4cc0 aa3f 195d c342 1bb8 ef42 ce31 9841
00000160: 753b f741 6d42 3842 eac2 a342 c9c2 1040
00000170: b2d8 ba40 3181 5642 490a f740 8318 7742
00000180: f782 4241 371d 9a42 e814 9442 4108 bb42
00000190: ba42 8742 3e89 3e42 b7b7 6841 4398 8541
000001a0: 5913 b143 993c 1c42 e0e8 2142 b858 7942
000001b0: 4e89 d942 0da9 8541 b79e 1043 8b35 2b41
000001c0: 91f2 8042 e25a 9b42 cb31 4c43 726b b543
000001d0: 9611 b842 450e e441 89cc 0843 904e 0b42
000001e0: ca59 2142 128c 9642 c495 d940 d2a8 3d42
000001f0: f3ae da41 77c7 7e42 2060 8c41 b37d 8741

fc2.weight f4 [128, 130]
-0.03258998 0.019138198 -0.00732842 -0.086146556 0.03250878 -0.0412486 0.04643538 0.027122911
-0.023555612 0.004297686 -0.0745624 -0.11757688 -0.11184263 -0.061876733 -0.08158776 -0.11324947
0.0285911 -0.05157306 0.01412087 -0.037590787 -0.07488208 -0.10651624 -0.12229887 0.030781398
-0.003354229 -0.022605622 -0.040320218 -0.1076688 0.063484766 0.06513426 -0.08244517 -0.014154969
-0.088642985 -0.09398944 -0.03782715 -0.09801001 -0.11802504 -0.06423648 -0.10910186 0.013713951
-0.078223355 0.04011232 0.022866054 0.041323528 -0.112534195 0.017389426 0.04387794 -0.013007507
-0.030513575 0.022269083 -0.024604416 -0.058287594 -0.11094905 -0.06910174 0.00953981 0.049200013
-0.021538954 -0.08682433 0.036653217 -0.050442707 0.0124497255 -0.09185625 0.013532569 -0.081698015
-0.020406798 -0.008973611 0.04322296 0.057473864 -0.11627701 0.0044150725 -0.0922164 -0.084231734
-0.025532495 -0.081415996 0.06446129 0.0059736148 -0.017096287 0.022643555 -0.10903346 0.007885289
0.003235672 -0.07293543 -0.06569835 0.014480285 0.05137859 -0.08900765 0.016640725 0.016535692
-0.07041534 -0.08115515 -0.022461688 0.040603667 -0.1069442 -0.09544099 0.02823726 -0.07592956
-0.1060834 -0.032857478 0.04129616 0.023067573 0.022074727 0.0017993761 -0.07646523 -0.09397825
0.044720467 -0.010584819 -0.014250353 -0.044439666 -0.11648946 -0.012018214 -0.04084612 -0.026866155
-0.021081222 -0.06738249 -0.09130171 -0.038864717 0.004711139 -0.07228023 0.052563727 -0.09787777
-0.09819313 -0.012260934 -0.123750545 -0.08651123 0.027986456 -0.0888815 0.0026759512 -0.09158122
-0.04405111 -0.0065969424 -0.0009088986 0.04798747 0.008487995 -0.0047701434 -0.05438525 0.051196534
-0.01580236 0.023056844 -0.08401003 0.021115554 0.059259053 0.044862438 0.06471578 -0.049002238
-0.07306027 0.015501782 0.011710986 -0.060869712 -0.04349777 -0.015690304 -0.023216944 0.014320065
0.010865889 -0.007565874 -0.050482 -0.09416317 0.043075617 -0.012084838 -0.07198221 -0.11332711
-0.07218585 0.041672867 -0.06842518 -0.0959199 -0.07825011 -0.059166815 -0.0186461 -0.060861792
0.00973765 -0.0338335 -0.03781448 -0.081453994 -0.029845042 0.07549041 -0.017552266 0.012858485
-0.112223074 0.044940818 -0.00026442626 -0.018869372 -0.007864319 -0.05299093 -0.074636884 -0.049354427
-0.016517568 0.06419225 -0.07059848 0.02780735 -0.06490416 0.022045914 -0.0011617331 -0.10586294
-0.082949944 0.008959817 0.041280266 0.0049505364 -0.011450463 -0.03268834 -0.04566444 -0.026111979
-0.08059015 0.025870409 -0.047456756 -0.10899444 -0.026640829 0.016589949 -0.06886701 -0.075192355
-0.019312106 -0.04577826 0.06136413 0.003689108 -0.039872333 -0.07880726 -0.0815839 0.021515677
-0.02938492 0.0066217105 -0.016935604 0.049444545 -0.007988623 0.013070171 -0.10990315 0.030093929
-0.08958543 -0.036399126 -0.11252907 0.03422096 -0.029164985 -0.096776344 -0.07504867 0.041508187
0.054103944 0.03897419 -0.10172896 -0.04458063 0.0045164735 -0.01582527 -0.053974047 0.0692469
-0.0663701 0.032274142 0.025325987 -0.082881436 -0.07400618 -0.069118716 0.056160342 -0.080346316
-0.009396531 -0.038511787 -0.040513966 -0.058340967 -0.08725045 -0.08504859 -0.040035903 -0.0292088
00000000: 127d 05bd b6c7 9c3c 3e23 f0bb 9b6d b0bd
00000010: ed27 053d 4bf4 28bd 0633 3e3d de30 de3c
00000020: b3f7 c0bc 9ad3 8c3b 2cb4 98bd 26cc f0bd
00000030: c00d e5bd 7572 7dbd 7c17 a7bd 57ef e7bd
00000040: e237 ea3c 463e 53bd 395b 673c ccf8 19bd
00000050: c75b 99bd 3025 dabd d477 fabd 4529 fc3c
00000060: a0d2 5bbb 6d2f b9bc d026 25bd 7681 dcbd
00000070: 4d04 823d 1c65 853d 03d9 a8bd 3eea 67bc
00000080: 748a b5bd 897d c0bd a4f0 1abd 79b9 c8bd
00000090: 1db7 f1bd 6a8e 83bd cc70 dfbd 7bb0 603c
000000a0: 9133 a0bd d14c 243d 9751 bb3c dc42 293d
000000b0: 5478 e6bd 4574 8e3c 5bb9 333d 701d 55bc
000000c0: 9bf7 f9bc a76d b63c 338f c9bc f9be 6ebd
000000d0: 4139 e3bd 3785 8dbd dd4c 1c3c f485 493d
000000e0: 7672 b0bc f4d0 b1bd af21 163d 039d 4ebd
000000f0: eff9 4b3c 211f bcbd b5b7 5d3c 4a51 a7bd
00000100: 282c a7bc 0d06 13bc 8f0a 313d b769 6b3d
00000110: a422 eebd 50ac 903b f4db bcbd b081 acbd
00000120: 8629 d1bc 6ebd a6bd 4804 843d 50be c33b
00000130: 830d 8cbc fa7e b93c ef4c dfbd 4d31 013c
00000140: 910d 543b 2c5f 95bd db8c 86bd b83e 6d3c
00000150: 5b72 523d a549 b6bd 2152 883c dc75 873c
00000160: eb35 90bd ac34 a6bd 9301 b8bc 0850 263d
00000170: 9005 dbbd 9176 c3bd d451 e73c f580 9bbd
00000180: 4142 d9bd 9095 06bd 2a26 293d 35f8 bc3c
00000190: 0fd6 b43c 0bd9 eb3a cd99 9cbd ab77 c0bd
000001a0: cf2c 373d f36b 2dbc 507a 69bc 5e06 36bd
000001b0: 0792 eebd 0be8 44bc 434e 27bd 6916 dcbc
000001c0: 87b2 acbc d5ff 89bd 64fc babd 9c30 1fbd
000001d0: e65f 9a3b a807 94bd 104d 573d 2474 c8bd
000001e0: 7b19 c9bd 16e2 48bc ed70 fdbd cd2c b1bd
000001f0: da43 e53c 8107 b6bd 035f 2f3b ef8e bbbd
00000200: f06e 34bd 2a2b d8bb 2743 6eba 828e 443d
00000210: 3b11 0b3c dd4e 9cbb 11c3 5ebd 75b3 513d
00000220: f373 81bc b5e1 bc3c 730d acbd 87fa ac3c
00000230: 9fb9 723d adc1 373d b589 843d 92b6 48bd
00000240: 9fa0 95bd 30fb 7d3c 6fdf 3f3c 8552 79bd
00000250: b82a 32bd f488 80bc 7631 bebc b59e 6a3c
00000260: d706 323c 27eb f7bb 37c6 4ebd 9fd8 c0bd
00000270: 0f70 303d 7cff 45bc 696b 93bd 0b18 e8bd
00000280: 2dd6 93bd 2bb1 2a3d 8022 8cbd a771 c4bd
00000290: 9841 a0bd e758 72bd b5bf 98bc 374a 79bd
000002a0: aa8a 1f3c ff94 0abd 5be3 1abd 5ad1 a6bd
000002b0: 977d f4bc b79a 9a3d c5c9 8fbc 65ac 523c
000002c0: 36d5 e5bd dd13 383d b1a2 8ab9 f193 9abc
000002d0: 58d9 00bc 040d 59bd 39db 98bd de27 4abd
000002e0: da4f 87bc 3a77 833d f095 90bd 3dcc e33c
000002f0: 79ec 84bd a299 b43c 4b45 98ba abce d8bd
00000300: a9e1 a9bd 32cc 123c 7f15 293d 1c38 a23b
00000310: b99a 3bbc 35e4 05bd a30a 3bbd cae8 d5bc
00000320: 730c a5bd 2eee d33c 0462 42bd 7a38 dfbd
00000330: de3d dabc a5e7 873c 260a 8dbd 73fe 99bd
00000340: 6c34 9ebc fc81 3bbd f458 7b3d f6c4 713b
00000350: 2c51 23bd b365 a1bd 7615 a7bd a541 b03c
00000360: a5b8 f0bc effa d83b 89bc 8abc 5d86 4a3d
00000370: b7e2 02bc 4524 563c e714 e1bd 8b87 f63c
00000380: 9178 b7bd 4017 15bd a475 e6bd 472b 0c3d
00000390: 68eb eebc ad32 c6bd 1eb3 99bd 7d04 2a3d
000003a0: 199c 5d3d 66a3 1f3d 4657 d0bd 2e9a 36bd
000003b0: edfe 933b ffa3 81bc e413 5dbd 52d1 8d3d
000003c0: 0ced 87bd e431 043d 7278 cf3c bebd a9bd
000003d0: 8d90 97bd 1d8e 8dbd 6308 663d 9c8c a4bd
000003e0: e8f3 19bc 89be 1dbd f9f1 25bd f0f6 6ebd
000003f0: 5db0 b2bd f52d aebd b0fc 23bd 4b47 efbc

fc2.bias f4 [128]
-0.10461866 -0.13095267 0.32212338 -0.07724289 0.15817454 0.7436595 -0.5750156 0.10715114
-0.6417559 0.09612142 -0.14643061 -0.0063387854 0.0124170445 -0.19393097 0.17640756 0.3350097
-0.3112505 0.21354261 -0.5036994 0.29460326 -0.06616395 -0.1952557 -0.1289364 0.025465945
-0.20763946 -0.25200883 0.09829938 -0.32987145 -0.0064146197 0.04487155 0.5418575 -0.37631056
0.069128744 -0.1563114 -0.7380846 -0.62391865 0.45096973 -0.13579802 -0.04019714 -0.06775544
-0.25378245 0.038111195 0.18901677 0.09659257 -0.015129907 0.009155222 0.1889934 -0.12562716
-0.8297564 0.29355034 0.23995756 0.22558074 -0.12967582 -0.10972231 -0.17816304 0.081423305
-0.21894448 0.06077443 -0.036698278 -0.122933485 0.59981734 -0.05784314 -0.47270548 -0.1437725
-0.20006211 -0.25799537 -0.1014243 -0.12441091 0.35309204 0.16673213 -0.25773937 -0.42487782
-0.015103451 -0.037391562 -0.2873461 0.07717909 -0.100346066 0.1282737 0.38541776 0.056478895
0.33124143 -0.06442775 0.08095598 -0.2738949 0.19535351 -0.9036665 -0.11696611 -0.5159436
-0.3755858 0.11945798 -0.1658164 0.13644776 0.17946334 0.121535085 0.20719379 0.28331855
0.17868528 0.47170386 -0.5618252 -0.07956416 -0.109351546 -0.7399081 0.32756326 -0.23453678
-0.12445702 -0.30012807 -0.052389614 -0.0110798925 -0.00492513 0.050739847 -0.40739283 0.08076932
-0.31369877 0.30476072 -0.18303432 -0.21927118 0.21413362 0.31030154 0.2718739 -0.046056658
-0.2566708 0.44622386 -0.16648383 0.18650839 -0.27277845 -0.4168809 -0.014824008 -0.04891189
00000000: 4f42 d6bd 7518 06be 5bed a43e 8531 9ebd
00000010: 82f8 213e 7860 3e3f 3934 13bf 0f72 db3d
00000020: 1d4a 24bf 4fdb c43d e8f1 15be 96b5 cfbb
00000030: dc70 4b3c d795 46be 2fa4 343e 6486 ab3e
00000040: 3a5c 9fbe eaaa 5a3e 72f2 00bf 3dd6 963e
00000050: f780 87bd 1cf1 47be e707 04be f59d d03c
00000060: 709f 54be 4d07 81be 2f51 c93d e9e4 a8be
00000070: bb31 d2bb 3bcb 373d 2cb7 0a3f c7ab c0be
00000080: 5f93 8d3d 1810 20be 1df3 3cbf 22b9 1fbf
00000090: 81e5 e63e a30e 0bbe c2a5 24bd 5dc3 8abd
000000a0: c6ef 81be 7c1a 1c3d 9d8d 413e 53d2 c53d
000000b0: 6ee3 77bc c9ff 153c 7c87 413e 68a4 00be
000000c0: ea6a 54bf 3b4c 963e 6fb7 753e a3fe 663e
000000d0: bdc9 04be 17b6 e0bd 5f70 36be 43c1 a63d
000000e0: fb32 60be 9cee 783d ef50 16bd 8dc4 fbbd
000000f0: a18d 193f eeec 6cbd 7406 f2be 1939 13be
00000100: 15dd 4cbe f817 84be 8bb7 cfbd 26cb febd
00000110: 7bc8 b43e d4bb 2a3e 6af6 83be 9689 d9be
00000120: 7774 77bc e527 19bd 071f 93be 1210 9e3d
00000130: 3d82 cdbd 2e5a 033e 7a55 c53e 6a56 673d
00000140: 7a98 a93e b2f2 83bd 40cc a53d f43b 8cbe
00000150: c00a 483e b056 67bf ee8b efbd e114 04bf
00000160: c84c c0be 63a6 f43d c6cb 29be f6b8 0b3e
00000170: 3dc5 373e 63e7 f83d 9c2a 543e 210f 913e
00000180: 46f9 363e 2b83 f13e c7d3 0fbf 89f2 a2bd
00000190: b4f3 dfbd 9e6a 3dbf 5fb6 a73e 692a 70be
000001a0: 52e3 febd 63aa 99be 7e96 56bd 7088 35bc
000001b0: fc62 a1bb 96d4 4f3d cb95 d0be 636a a53d
000001c0: 209d a0be 9909 9c3e 596d 3bbe a088 60be
000001d0: d845 5b3e d8df 9e3e 0e33 8b3e e8a5 3cbd
000001e0: 5b6a 83be 7477 e43e bd7a 2abe 0efc 3e3e
000001f0: 9ea9 8bbe 6a71 d5be 65e0 72bc d557 48bd

fc3.weight f4 [1, 128]
0.009746153 -0.0033630803 0.022683457 -0.013991359 0.10501602 -0.088709824 -0.23425673 -0.061454665
-0.11285245 0.10289623 -0.037663914 0.10181323 -0.053264484 -0.086327806 0.17097706 0.053297654
0.020170424 -0.025484998 -0.11584747 0.017616563 -0.038209096 -0.13890618 -0.09894969 -0.10212508
0.13265546 0.15039495 -0.07028749 -0.21334615 0.08943732 0.07479529 0.052225042 -0.117386624
0.045009725 0.07489021 -0.10418206 -0.35800147 0.02011689 0.07876466 0.08297342 -0.07813393
-0.13035126 0.04734945 -0.09217332 0.08277576 0.20972218 -0.06639633 0.12479687 0.032104716
-0.08657863 -0.0554655 0.03159788 0.019731974 0.10410008 -0.5912858 -0.10787249 -0.080900125
-0.0715105 0.028831596 0.14736491 0.23637936 0.027168065 0.0051475368 -0.20581338 0.22708157
-0.094894595 0.11473899 0.16163449 -0.06282612 0.029398799 0.022552012 0.063978985 -0.26788652
0.15286069 -0.08039593 0.101028234 -0.04986107 0.126138 0.071911216 0.037943274 -0.25265768
0.06282858 -0.073318556 0.07011356 0.1924826 0.12313571 0.14063212 -0.087437086 -0.15596083
-0.05465606 0.040155735 -0.2561207 0.026043044 0.05824835 0.07452982 -0.07473751 0.033540975
-0.07003697 -0.05712724 -0.14661086 0.098451965 0.0042076586 -0.06453726 -0.09450801 0.16434066
0.038806442 -0.22284076 0.013758981 -0.030134158 -0.15463845 0.14851809 -0.050690282 -0.07944313
0.17668442 -0.070315056 0.26874578 0.13611946 -0.03539043 -0.051742893 0.040943377 0.08783712
0.16116194 0.040756054 0.13256937 0.04148593 0.032439183 -0.11697084 0.2799295 0.101514824
00000000: 54ae 1f3c 2067 5cbb a8d2 b93c 033c 65bc
00000010: a412 d73d 7fad b5bd ffe0 6fbe e3b7 7bbd
00000020: 2f1f e7bd 42bb d23d 7a45 1abd 7483 d03d
00000030: dc2b 5abd a2cc b0bd 9c14 2f3e a44e 5a3d
00000040: 723c a53c eac5 d0bc 7041 edbd 9c50 903c
00000050: 2481 1cbd 6c3d 0ebe 23a6 cabd f426 d1bd
00000060: d5d6 073e 2201 1a3e e3f2 8fbd 6a77 5abe
00000070: ea2a b73d 462e 993d ede9 553d 6668 f0bd
00000080: 1e5c 383d 0a60 993d 675d d5bd f84b b7be
00000090: 2dcc a43c 5e4f a13d f8ed a93d af04 a0bd
000000a0: cd7a 05be 7ff1 413d 5ec5 bcbd 5686 a93d
000000b0: 69c1 563e cdfa 87bd 8095 ff3d 3c80 033d
000000c0: 2350 b1bd cb2f 63bd c76c 013d f3a4 a13c
000000d0: 6c32 d53d 825e 17bf 41ec dcbd f7ae a5bd
000000e0: 1974 92bd 3d30 ec3c d4e6 163e 6e0d 723e
000000f0: 908f de3c abac a83b bec0 52be 1288 683e
00000100: 1958 c2bd 47fc ea3d 8383 253e fbaa 80bd
00000110: c0d5 f03c ffbe b83c 6a07 833d 6c28 89be
00000120: 8387 1c3e 9fa6 a4bd e4e7 ce3d 1f3b 4cbd
00000130: 522a 013e 3046 933d 686a 1b3d 595c 81be
00000140: 45ac 803d 0a28 96bd b397 8f3d 291a 453e
00000150: 932e fc3d de01 103e 3712 b3bd 32b4 1fbe
00000160: 08df 5fbd 577a 243d 4122 83be 3958 d53c
00000170: d295 6e3d 17a3 983d fb0f 99bd 4362 093d
00000180: 8b6f 8fbd 41fe 69bd 2821 16be 2fa1 c93d
00000190: 66e0 893b 1c2c 84bd 6a8d c1bd eb48 283e
000001a0: 81f3 1e3d 5e30 64be 596d 613c e9db f6bc
000001b0: 8b59 1ebe 2015 183e 9da0 4fbd 14b3 a2bd
000001c0: c3ec 343e 5701 90bd 0c99 893e e662 0b3e
000001d0: 8ef5 10bd 5bf0 53bd 3eb4 273d f3e3 b33d
000001e0: a307 253e d2ef 263d 44c0 073e 27ed 293d
000001f0: f3de 043d 688e efbd eb52 8f3e 01e7 cf3d
