models/checkpoint_actor_0.pth (torch, 90531 bytes, 18 tensors)

fc1.weight f4 [128, 24]
000000 d6 c9 f6 3d 7f d3 35 bd e2 3f 20 bd cb bf d3 bb
       0.12050216 -0.04439115 -0.039123423 -0.0064620725
000010 a0 62 b6 bd 04 4a 2a 3d 80 13 06 3d fd ce c0 3c
       -0.0890553 0.041574493 0.03273344 0.0235362
000020 49 91 d0 3d e2 06 fa bc 21 86 bc bc 92 0f 82 bc
       0.10183961 -0.03052086 -0.023013176 -0.015876565
000030 47 64 85 bd 43 bf 69 3d ce d2 fe 3c 39 27 44 bd
       -0.06513267 0.057067167 0.031106379 -0.04788897
000040 05 b6 b2 3d 4e 51 fa 3d a6 2e 99 3c 7b 3c 28 3e
       0.08726124 0.12222539 0.018699002 0.16429321
000050 9e 9b 93 3b 4c c2 c0 3d 9b 4d c0 bb f2 ab a4 3d
       0.004504635 0.09412059 -0.0058686263 0.080406085
000060 15 5c bf 3d 3d 48 ff 3c 7f 0b 66 3c ae c1 09 bd
       0.09343735 0.031162376 0.014040827 -0.033631973
000070 43 d4 58 3e 3b 22 de bc 38 6b 93 bb d5 65 bf bc
       0.21174721 -0.027115932 -0.0044988655 -0.023363987
000080 01 f8 f3 b9 13 6f b5 bd bc a6 99 bb 8c ef 82 bd
       -0.0004653335 -0.08859076 -0.0046890657 -0.06393346
000090 90 e6 bb 3d 36 87 77 3c 4a b5 99 bc 2d 74 af 3d
       0.09174836 0.01510792 -0.018763203 0.08567081
0000a0 b4 75 bc 3d 40 7f 90 bd 35 63 0d bd 08 75 8e bc
       0.092021376 -0.07055521 -0.03451844 -0.01738979
0000b0 1f fb af 3d ce d7 89 3d be 66 91 bc 61 a9 33 3d
       0.085928194 0.067306146 -0.017749187 0.043862704
0000c0 12 4b 12 bd 8e 64 af bd 74 b8 f6 3c 17 80 24 bd
       -0.035716124 -0.08564101 0.030117251 -0.04016122
0000d0 0c 2f 31 bd b6 79 8b bd 4c 42 d2 bc fe 7e 7d 3c
       -0.043257758 -0.06810324 -0.025666378 0.015472172
0000e0 87 da 15 bb 97 f0 9f 3c 8b a2 bf 3a 5e a2 37 3d
       -0.0022865848 0.019523902 0.0014620585 0.04483258
0000f0 55 c7 6b 3c db 22 9f 3d 99 7f ba bb 5e 4e 26 bd
       0.014390786 0.0777032 -0.0056914804 -0.04060208
000100 85 a3 6e 3d 2c 4b 3b 3e e1 4b 3c 3d 7a f7 10 3d
       0.058261413 0.18290395 0.0459708 0.035392262
000110 1e 19 22 3d d0 cb 88 3e 48 d6 21 bd eb 60 fb 3d
       0.039574735 0.26717997 -0.039510995 0.12274345
000120 2f f3 d7 3c 11 57 44 3e 84 1e 42 3d 6b 57 af bd
       0.026361076 0.19173838 0.047392383 -0.085615955
000130 0a 53 69 bd 70 75 e2 bd 66 41 5e bc f5 93 e0 bc
       -0.056963958 -0.11057556 -0.013565397 -0.027414301
000140 e3 54 d9 3d 3c 47 39 3e 98 d6 b6 bb 75 df 86 bd
       0.10611894 0.1809358 -0.005579781 -0.0658559
000150 74 23 0b 3d ce a3 ed bc 1d fe ec bc d3 e4 cc bb
       0.033969358 -0.029008772 -0.028929764 -0.006252864
000160 ae 44 5a bc 02 40 39 3d 50 1e 01 bd b8 13 18 be
       -0.013322039 0.04522706 -0.03152305 -0.14851272
000170 2e 12 c2 ba ba 6e 96 3d 01 56 02 3d 58 6a 3e bd
       -0.0014806443 0.07345338 0.0318203 -0.046488136
000180 fb 21 a2 bc 77 59 33 3e 02 6e fe 3c 81 69 a2 bd
       -0.019791594 0.17514597 0.031058315 -0.079302795
000190 10 94 31 bc a3 ca 15 3e d4 9c 04 3d 3f 20 8b bd
       -0.0108385235 0.14628081 0.032376125 -0.0679326
0001a0 a7 9b c1 3d b8 db 61 3d 51 96 7e bd 3f c8 80 3d
       0.094535165 0.05514118 -0.06215507 0.06288194
0001b0 21 e8 68 3c f5 3d 33 3e 2a 6d 8b bd 97 7e 43 bd
       0.0142155 0.17504103 -0.06807931 -0.047728147
0001c0 41 7e 92 bd 05 53 3c 3e b7 d3 05 bd 13 fe 27 3d
       -0.07152987 0.18391044 -0.03267261 0.04101379
0001d0 d8 44 a3 3d 5d 6d 71 bb 3e 18 da bc 7c ae 6b bd
       0.07972115 -0.0036838867 -0.026622888 -0.05753945
0001e0 39 1e e8 bb 9e e8 23 3d f3 6a 19 bd 8e 6a fa bd
       -0.007083681 0.040016763 -0.03745551 -0.12227355
0001f0 bb 59 1e bd d2 7f 77 bd 51 4d 0b 3d b3 cf 5a bd
       -0.038659792 -0.060424633 0.03400928 -0.053420734
000200 1e 9f aa bd a3 2f ed bc 0d 06 87 bc 8a 8e 4f 3c
       -0.083311304 -0.028953379 -0.016482377 0.012668261
000210 db 6b 61 3d c6 ed 43 be d0 d3 40 bc 1c 88 1e bd
       0.0550345 -0.19133672 -0.01176925 -0.038704023
000220 58 1c 0b 3d b0 da ed bd 3f 20 c4 bc ca 37 3a bd
       0.033962578 -0.11613977 -0.023941157 -0.04546336
000230 af 21 b3 bd e5 e3 0e be da df 53 3c d5 06 35 bd
       -0.08746659 -0.13954122 0.012931788 -0.04419597
000240 f1 7b 1a 3d 08 18 9e 3d 80 06 8b 3d cc a0 a6 bd
       0.037715856 0.07719427 0.06788349 -0.08136138
000250 8e 1f fb bd 85 41 b1 bd 2b b3 89 bd 0d b1 6e bd
       -0.12261878 -0.08655075 -0.06723627 -0.058274318
000260 2c bc 74 3d 43 6b 46 3d c2 42 68 bd 86 6b 4c 3d
       0.059749767 0.048442136 -0.05670429 0.04990723
000270 28 37 9d 3d dc 7e 80 3d 6f cc 5b 3d 0a 05 93 3d
       0.07676536 0.062741965 0.05366176 0.071786955
000280 eb 7d 7d 3d fb 4a a2 3d 44 6d 18 bd 9b 10 72 bc
       0.061887663 0.07924458 -0.03721358 -0.014774467
000290 c9 b6 83 3d 6c a6 66 3c 62 85 64 3d 8e 7d 6d bd
       0.06431348 0.014077764 0.055791266 -0.057981066
0002a0 2c 46 57 3d d9 91 e1 3c 97 d2 cd bb 3c 16 6c 3d
       0.052557155 0.027535366 -0.006281208 0.05763839
0002b0 de d7 07 3d 95 d1 96 be a5 63 9e bb bf 05 dc b9
       0.03316485 -0.29456773 -0.004833656 -0.0004196595
0002c0 06 4f a0 3c 6e f7 cd bc ae 44 55 bc 5b c4 90 bd
       0.019568931 -0.025142398 -0.013016863 -0.07068702
0002d0 2e ed 60 bd ee b5 89 bc 6a 00 fa 3c 59 c9 85 bd
       -0.054913692 -0.016810384 0.030517776 -0.06532545
0002e0 38 e3 8b bd 61 de 74 bd eb 72 e7 3c f6 88 55 3d
       -0.06830448 -0.05978239 0.02825304 0.05213257
0002f0 f4 7b 2c 3d ff e3 9d bb 84 4d 33 3d b6 1a 7d 3d
       0.0421104 -0.004818439 0.043775097 0.06179305
000300 15 11 bb 3c 26 2d 01 be 80 0b 65 3d 28 72 9a bd
       0.022835294 -0.12614879 0.05591917 -0.07541305
000310 82 70 22 bd 8d b1 0b be cb 10 82 bd f7 31 da 3b
       -0.039658077 -0.13641949 -0.06350859 0.0066587883
000320 cf 7b 7d 3d 1d 0a 9f bd 68 b2 30 bd 19 01 8b bd
       0.06188565 -0.07765601 -0.04313889 -0.06787319
000330 ab 54 46 3d e4 66 6f be 2a 01 4d 3d 09 55 b8 3a
       0.04842059 -0.23379093 0.05004994 0.0014063428
000340 8c 76 8b bc 71 04 68 bd 37 34 22 3d 53 e6 9e 3d
       -0.017024301 -0.05664486 0.039600577 0.077587746
000350 90 a7 71 bd e0 9d e3 bd ab 1e 0b bd 6a cf 3a 3c
       -0.05899769 -0.11114097 -0.033964794 0.01140199
000360 5f cd a2 3d c9 a8 6c 3d 4d 2c 58 3d 01 58 42 bd
       0.07949328 0.057778154 0.052776624 -0.04744721
000370 26 47 69 bd 5d 49 cd bd 0b 82 f2 3c ac bd c5 3d
       -0.056952618 -0.100237586 0.029603025 0.09655318
000380 a7 19 f7 3c 2c e2 fc 3c a7 31 2b bc 3d cc 4f bd
       0.0301636 0.030869566 -0.01044885 -0.050731886
000390 5c 4b 68 bd 93 e0 ed bd e3 90 0c 3c 6a c0 05 be
       -0.056712493 -0.116151 0.008579466 -0.13061681
0003a0 46 19 b5 bd 84 5e b1 bd 83 a2 c8 bd ae fe e8 bd
       -0.08842711 -0.086606055 -0.09796622 -0.11376701
0003b0 b4 fc a3 3c e8 1b 14 be fd fb 01 3d 04 e3 cd bd
       0.02001796 -0.1446377 0.031734455 -0.100530654
0003c0 0b 3b 2e 3d e1 d9 8d be e9 25 86 3c 02 58 59 3d
       0.042536777 -0.2770529 0.016375499 0.053062446
0003d0 61 ef a0 bd 28 11 80 3d 18 f2 09 3c 92 8d 1f bd
       -0.07858158 0.06253272 0.008419536 -0.03895337
0003e0 86 42 d4 3c 16 63 85 be a9 81 91 3b ad 2e 02 3d
       0.025910627 -0.2605216 0.0044405055 0.031782795
0003f0 96 e6 81 bd a6 30 1b 3e d7 17 2e 3c 7f ce cf 3b
       -0.06342809 0.15155277 0.010625801 0.006341755

fc1.bias f4 [128]
000000 bc 5c 52 bd 6b 62 96 3c 59 f4 5f bd a6 a6 4c be
       -0.05135797 0.018357476 -0.054676387 -0.19985446
000010 2c 56 ad bc c0 f2 cb 3d 76 a6 c2 bc 54 c3 cd bd
       -0.021159254 0.0995841 -0.023761015 -0.100470215
000020 61 e6 d0 3b b3 b6 18 3d 64 41 69 bd 35 19 22 be
       0.0063751196 0.03728361 -0.056947127 -0.15829928
000030 a1 19 e0 bd 51 4d 08 bd 17 6a 96 3d 26 de 39 3e
       -0.10942388 -0.03327686 0.07344454 0.18151149
000040 47 f1 7a 3b 96 b8 95 3d 57 83 f0 3d a9 48 b6 bd
       0.0038290785 0.073105976 0.11743801 -0.089005776
000050 ba b0 8a bd f2 9f 0a 3e 61 ac 15 3e a1 2c 47 3d
       -0.06771989 0.13537577 0.14616539 0.048626546
000060 40 88 21 be 73 32 ed 3d 3f d9 2c be 43 db d0 3d
       -0.15774632 0.11581888 -0.16879748 0.10198071
000070 1c ab c6 3c 78 2c 87 3d 58 cb 4b be ba 10 93 bd
       0.024251513 0.066002786 -0.19901788 -0.07180925
000080 ff d3 b1 3d e9 dc 20 3e f4 62 6f bd 4f 6c 3a 3e
       0.08683013 0.1570927 -0.05844398 0.18205379
000090 00 9a 3a bd 70 41 fc bd ef 0a b5 bd 6e db 4e 3c
       -0.045557022 -0.12317169 -0.08839976 0.012625558
0000a0 7e 0a 14 bd 3d 64 ca 3d 9c 59 e7 bd ad c0 6d bd
       -0.03614282 0.098824 -0.112963885 -0.058045078
0000b0 ac 33 4f be f8 9b 2a 3e b7 57 1d bd ca cd 24 be
       -0.20234555 0.1666106 -0.03841373 -0.16094127
0000c0 28 16 22 bc a9 cb bb b9 3c 25 68 3d 21 af b7 bc
       -0.009892978 -0.00035819158 0.056676134 -0.022422375
0000d0 47 7d 03 3e fd 40 90 bd 3c 66 7a bd ac 5a 46 bd
       0.12840758 -0.070436455 -0.061132655 -0.048426315
0000e0 28 35 15 3d ec 75 27 3e 13 c9 16 bc 91 e1 20 3e
       0.036427647 0.16353577 -0.009203213 0.15711047
0000f0 d9 25 24 3e 13 9d d9 bd 35 ab 91 bc 17 2f c5 bd
       0.16030063 -0.10625663 -0.017781833 -0.09628122
000100 c3 e2 ad 3d e5 e7 92 bd 2d 34 7f 3d 20 12 49 3c
       0.08490517 -0.071731366 0.062305618 0.012272388
000110 04 61 09 be 85 8b 0c be 87 16 4c be 07 ca e9 bd
       -0.13415915 -0.13725097 -0.19930468 -0.11415487
000120 01 a5 69 3d a7 d9 4b 3c 72 32 1d 3e 7e c9 37 be
       0.057042126 0.012442029 0.15351275 -0.17947957
000130 9d 74 c4 bb 9d 6f 3b be 49 08 a1 3a 80 7f 98 3d
       -0.0059953467 -0.18304296 0.0012285794 0.07446194
000140 e8 7d 3b be 0c 97 38 3e b5 d4 81 bd 1e 26 39 3e
       -0.18309748 0.1802637 -0.06339399 0.18080947
000150 db 24 0c bd 9b 2f ed 3d 14 08 3e 3e cc 1e 98 bd
       -0.034214836 0.11581346 0.18557769 -0.07427749
000160 41 35 4b bd 5a 40 db 3d ca f2 32 be f2 75 f7 3d
       -0.049611334 0.107056335 -0.17475429 0.12083043
000170 ac 59 03 be 6d 1f 42 3e 16 00 09 be 87 00 ac bd
       -0.12827176 0.189573 -0.13378939 -0.08398538
000180 6e f5 1b 3e 2d 0c b6 bd de 10 33 3e 42 ce 0f 3e
       0.15230343 -0.08889041 0.17486903 0.14043525
000190 da 05 3f 3e 1a 9c 4a be 11 71 15 3b ce 71 89 bd
       0.18654576 -0.1978611 0.0022802989 -0.0671116
0001a0 9f 26 47 3d 7b cc 1d be 0f 73 ab 3d 2a 2f 1e bc
       0.048620816 -0.15410034 0.08371555 -0.0096547995
0001b0 6b 9d c5 bd 4c 08 3c be 4a 9a da 3d 29 5b 97 bd
       -0.09649166 -0.1836254 0.106739596 -0.07390434
0001c0 02 39 1a 3e 2f 08 15 3d e1 45 7e 3d e2 65 fd bc
       0.15060809 0.036384758 0.06207836 -0.03093237
0001d0 98 bf e7 bc f7 f9 8d bd c4 09 35 be 19 68 03 3e
       -0.028289601 -0.06932443 -0.17679507 0.12832679
0001e0 ca a3 03 be ce 8b f3 3d 60 fd 8c bd c3 ed 02 3e
       -0.1285545 0.118919 -0.06884265 0.12786011
0001f0 04 24 33 3e db 9f ff bd b6 7c 2c 3e 8e 86 a4 3b
       0.17494208 -0.12481662 0.16844448 0.005020923

bn1.weight f4 [128]
000000 a2 3f 80 3f 57 a5 83 3f ae 9c 89 3f 7a 97 6e 3f
       1.0019419 1.0284833 1.075094 0.93199885
000010 2a 49 71 3f b3 b5 6d 3f 98 14 70 3f 3c 5b 72 3f
       0.94252264 0.92855376 0.93781424 0.9467046
000020 21 71 87 3f 31 e6 5a 3f 34 58 77 3f 30 ac 89 3f
       1.0581399 0.85507494 0.9661896 1.0755672
000030 ac 48 73 3f 16 7f 7a 3f a5 70 89 3f 85 68 7c 3f
       0.95032763 0.9785017 1.0737501 0.98596984
000040 89 2b 96 3f 9a 52 71 3f 77 88 80 3f 26 99 69 3f
       1.1732036 0.94266665 1.0041646 0.9124931
000050 ae 20 7c 3f 7d f6 63 3f 7b 10 70 3f 4a 66 9e 3f
       0.98487365 0.89047986 0.9377515 1.2374966
000060 ba 99 77 3f 23 e2 64 3f b2 0a 64 3f aa cf 82 3f
       0.96718943 0.8940756 0.8907882 1.0219624
000070 7e 5f 92 3f 9a c2 6a 3f f1 a3 8b 3f 34 d0 88 3f
       1.1435392 0.9170319 1.0909406 1.0688539
000080 c0 e3 80 3f 4b 4d 80 3f 94 6e 77 3f b8 a4 85 3f
       1.0069504 1.0023588 0.96653104 1.0440893
000090 ed e8 68 3f 2f ef 80 3f 9d 48 73 3f d3 4d 8d 3f
       0.90980417 1.0072993 0.95032674 1.1039375
0000a0 23 0e 7d 3f 60 1a 84 3f c4 c7 6c 3f 19 99 78 3f
       0.98849696 1.0320549 0.9249232 0.9710861
0000b0 24 2d 77 3f 3d 00 8b 3f 0a 0a 72 3f 7e 93 6a 3f
       0.96553254 1.0859448 0.9454657 0.91631305
0000c0 ea 4d 7c 3f 9e 3b 6f 3f b9 b5 64 3f bd f4 74 3f
       0.9855639 0.93450344 0.89339787 0.9568594
0000d0 41 d0 80 3f c4 7f 85 3f 35 17 86 3f 9c 40 80 3f
       1.0063554 1.0429616 1.0475832 1.0019717
0000e0 f3 5f 60 3f c3 c9 74 3f 47 ac 9a 3f 1d 79 6a 3f
       0.87646407 0.95620364 1.2083825 0.91591054
0000f0 e7 50 75 3f e9 da 6b 3f eb 29 96 3f df 04 89 3f
       0.9582657 0.92130905 1.1731542 1.0704612
000100 84 7b 86 3f e2 d7 85 3f fe b6 79 3f d7 4d 73 3f
       1.0506444 1.0456507 0.9754485 0.9504065
000110 f0 c8 96 3f ce ad 7e 3f 1c 48 59 3f 16 b8 86 3f
       1.1780071 0.99483955 0.84875655 1.0524929
000120 8f 07 81 3f 4e 27 78 3f 7b 28 6a 3f 56 3b 68 3f
       1.0080432 0.96934974 0.9146802 0.9071554
000130 ef aa 93 3f da f6 72 3f 19 3f 74 3f f4 98 9a 3f
       1.153654 0.94907916 0.9540878 1.2077928
000140 12 3f 65 3f 28 b4 72 3f bb 71 64 3f 57 5e 79 3f
       0.8954936 0.94806147 0.8923604 0.97409576
000150 1b bf 76 3f ec 8c 73 3f 81 d4 82 3f 35 e9 7d 3f
       0.96385354 0.95136905 1.0221101 0.9918397
000160 f6 35 6f 3f 79 20 8b 3f 5d 3a 70 3f 82 86 80 3f
       0.9344171 1.0869285 0.93839055 1.0041049
000170 86 cf 81 3f 55 24 7d 3f e6 13 63 3f 3d f2 67 3f
       1.0141456 0.98883563 0.8870224 0.90604
000180 a8 fe 76 3f c7 4b 87 3f 76 10 92 3f c7 ee 84 3f
       0.96482325 1.057 1.1411273 1.0385369
000190 f4 5f 65 3f 81 e6 87 3f 5d a3 78 3f 2e a0 87 3f
       0.8959954 1.0617219 0.9712427 1.0595758
0001a0 1d b3 7b 3f e1 2f 76 3f 4a 4f 65 3f aa ff 75 3f
       0.9832018 0.9616681 0.8957411 0.9609324
0001b0 df 84 7f 3f 3e f1 6e 3f 8a 1e 65 3f e1 54 86 3f
       0.9981212 0.93336856 0.89499724 1.0494653
0001c0 16 df 6f 3f 37 e2 81 3f 97 ef 64 3f c3 2f 9d 3f
       0.9369978 1.014716 0.89428085 1.2280201
0001d0 44 67 8d 3f e7 61 70 3f 20 11 7a 3f 9f 12 73 3f
       1.1047139 0.9389939 0.9768238 0.9495029
0001e0 0c ef 77 3f 97 25 6b 3f 5e ab 71 3f d2 96 63 3f
       0.9684913 0.9185423 0.9440211 0.8890201
0001f0 1c 96 70 3f c5 7d 68 3f 78 24 71 3f 8d f9 6f 3f
       0.9397905 0.9081691 0.9419627 0.9374016

bn1.bias f4 [128]
000000 28 bf 00 be 6c af 72 bd 60 de 2b be 71 29 c4 3b
       -0.1257292 -0.059249327 -0.16784048 0.0059863855
000010 4d 48 49 bd 9f 33 45 bb fa ba c0 bd 35 50 b6 bd
       -0.049141217 -0.0030090583 -0.09410663 -0.08902017
000020 48 94 aa bc 02 46 ab 3d 7f fd 02 bd e0 02 53 bd
       -0.02082266 0.08362962 -0.031980034 -0.051516414
000030 57 73 56 3c 58 dd 1c be e3 bf 09 bc 12 fd 18 bd
       0.013089023 -0.15318811 -0.008407566 -0.03735072
000040 6f 4e 86 be 15 85 2d be 09 64 18 3d 9f e4 4b 3d
       -0.26231715 -0.16945298 0.037204776 0.049778577
000050 ad 76 36 3d 40 4a 5a bc bd 7e 85 bd 01 c9 ff 3d
       0.04454677 -0.013323367 -0.06518314 0.1248951
000060 be 16 ce bc 66 cd a1 3d ef 9f 90 3c ca e3 22 bd
       -0.025157329 0.07900505 0.017654387 -0.039768018
000070 4c d2 3d 3d 31 aa 28 be b9 bf e1 bd 9c 2f 61 be
       0.046343133 -0.16471173 -0.11022896 -0.21990818
000080 26 b4 fc bd 39 36 5d be 75 e5 78 3d 4c 6c 42 be
       -0.12339048 -0.21602716 0.060765702 -0.18986624
000090 8a 75 5f bd ac 91 6a bc aa 28 7f 3d 1b 69 f3 bc
       -0.054555453 -0.014316957 0.06229464 -0.029713204
0000a0 d7 ba 06 be fb d6 08 be 79 17 e5 bd 68 df 0c be
       -0.13157211 -0.13363259 -0.11186118 -0.13757098
0000b0 d1 14 0b 3e 5b f0 aa 3c f7 c3 71 bd ff 1e 84 bc
       0.1358216 0.020866564 -0.059024777 -0.016128061
0000c0 da b1 27 be c3 c3 e6 bd dd cf 03 be ca 05 c6 bd
       -0.16376439 -0.11267807 -0.12872262 -0.09669073
0000d0 3e c8 8b bc 88 24 09 bd ef 16 08 be 80 31 9f bd
       -0.017063256 -0.033482105 -0.13289998 -0.07773113
0000e0 9a 8f d4 3c 41 60 c6 bd 64 e5 22 be 33 96 ff bd
       0.02594738 -0.09686328 -0.15907818 -0.1247982
0000f0 8e d2 3e bd a3 75 23 be 5b c1 a7 3d 78 f0 26 be
       -0.04658752 -0.15962844 0.081911765 -0.16302669
000100 43 61 83 3d 42 2c eb 3c 83 51 01 be b7 79 51 bd
       0.064150356 0.028707627 -0.1262875 -0.051141467
000110 bb 95 14 3d af 1d a2 bd ed 68 9f bc 23 c8 1a bc
       0.036275607 -0.07915818 -0.019459212 -0.00944713
000120 71 2a a4 3c 13 ff 13 be ce e0 af bc 64 8c 46 be
       0.020039769 -0.14452772 -0.0214695 -0.19389492
000130 9b 9a 1b bd 69 76 20 bd d5 36 34 bd 47 12 33 3d
       -0.03798924 -0.039175425 -0.043997604 0.043718603
000140 e1 63 51 be 6c 8c 3d 3d b7 56 2b 3d 3a c0 18 be
       -0.20448257 0.046276495 0.041830745 -0.14917079
000150 e9 f2 e3 bd 9b ef 2e be 13 5c d6 bd a5 03 9a bd
       -0.11130316 -0.1708359 -0.104667805 -0.075202264
000160 e0 96 cb bd 83 57 28 3a e3 dd 71 bd 88 a6 f1 bd
       -0.099408865 0.00064217317 -0.0590495 -0.117993414
000170 2e 3e 71 be 39 a3 3b be a8 43 b4 bd 93 28 a8 bd
       -0.23558876 -0.18323983 -0.08801967 -0.08210864
000180 49 99 a5 bd 47 84 82 bd 40 1b 86 3e 2a 4f 5e bd
       -0.080858774 -0.06372886 0.26192665 -0.054274715
000190 a7 46 12 be 5b 31 2b be cb b3 ad 3d de 62 8b be
       -0.14284764 -0.16718046 0.084815584 -0.27223867
0001a0 70 a6 9d bd c0 86 0e be c7 51 b2 bd da 6b 3c 3d
       -0.07697761 -0.1391859 -0.08707004 0.046001293
0001b0 33 3b 34 bc 05 17 84 be 9a b4 8d bd 90 c6 83 bd
       -0.011000442 -0.25798813 -0.06919213 -0.06434357
0001c0 55 1d 90 3c 8a 14 4f 3d 51 05 28 bc a9 07 37 3d
       0.017592112 0.050556697 -0.010255174 0.04468504
0001d0 c4 5d 20 3d 8f 07 95 be a7 60 bf bc 5a c9 00 3d
       0.039151922 -0.2910733 -0.023361517 0.031442024
0001e0 0d 69 23 be ff 56 0b be 58 e9 60 be 24 0e 44 be
       -0.15958042 -0.13607405 -0.21964014 -0.19146019
0001f0 c8 29 6d be 3a ba fd bd 6d b9 5b bc ee 6b b9 3d
       -0.2316047 -0.123890355 -0.013410908 0.09053789

bn1.running_mean f4 [128]
000000 a2 be 11 c0 bd 1f b1 bf 15 33 d2 3e 58 35 e5 bf
       -2.2772603 -1.3837811 0.41054597 -1.7906904
000010 4d d8 91 3e c7 f1 d2 be 64 ce cd bf be 8a 54 bf
       0.28485337 -0.41200086 -1.607861 -0.83024204
000020 40 a3 d1 bf 66 e3 88 bf e1 ad b0 3e 9c d1 77 3e
       -1.6377945 -1.0694396 0.3450766 0.24201053
000030 c2 d4 42 3d 19 f9 f5 bf ec 91 b3 3e dd 4b 0a 3f
       0.047566183 -1.9216644 0.35072267 0.5402201
000040 cd 50 14 bf ac c6 d1 bf 2b 97 70 3f cc 70 b6 3f
       -0.5793579 -1.6388755 0.93980664 1.4253173
000050 96 7c 87 40 aa cd f6 3f 9f c8 10 3f 71 8b f9 3e
       4.2339582 1.9281514 0.56556123 0.48739198
000060 79 2e 45 c0 d5 53 a6 3d d1 fe 71 3f ec d3 f8 be
       -3.0809615 0.081214584 0.94529444 -0.48599184
000070 38 9f bf 3f a2 5f 37 c0 e4 0d ab be 4f 72 7e bf
       1.4970465 -2.865212 -0.33409035 -0.9939317
000080 03 4b 32 c0 27 c3 0d 3f f2 73 41 3f 0b 79 38 3f
       -2.7858284 0.55375904 0.75567544 0.72059697
000090 42 8d ea 3f 1d ce c7 3f ba 1f d1 3f 1d 99 2f 3e
       1.8324358 1.5609776 1.6337807 0.17148252
0000a0 e4 47 a2 bf 68 b2 26 c0 05 03 83 40 71 54 a0 bf
       -1.2678189 -2.604639 4.0941186 -1.252577
0000b0 0f ed 04 40 eb 6b be 3f 29 35 06 3f 75 82 1c 3f
       2.076969 1.4876684 0.52424866 0.6113656
0000c0 e6 bd 2f bf e0 a8 1c c0 ab ed e4 3f 72 97 8a 3f
       -0.6864914 -2.4478073 1.788503 1.0827467
0000d0 5c e2 8a 3f ab aa dd bf a9 c7 4e 3f f7 e6 eb be
       1.0850329 -1.7317709 0.8077341 -0.4607465
0000e0 ac 30 7f bf 8d db d4 3f bf 1f 65 3f 53 a2 8a bf
       -0.9968364 1.6629502 0.89501566 -1.0830787
0000f0 6a 85 85 3f b7 17 89 3f 4b de fc 3d 9a 2a 80 bf
       1.043134 1.0710362 0.123470865 -1.0013001
000100 6d 36 20 3e 54 8e 54 3f 2a 98 0f c0 cf 62 c5 be
       0.15645762 0.83029675 -2.2436624 -0.38551947
000110 8c 98 f7 bd 2f 40 ad 3d 46 00 20 3e 58 bf 3d 3f
       -0.12089643 0.08459508 0.15625104 0.7412009
000120 df 8a 82 3f eb ee 00 3f 05 08 a1 3f 19 52 32 bf
       1.019863 0.5036456 1.2580572 -0.6965652
000130 53 fc 20 3e 54 40 1e c0 39 f8 4d be 38 64 a2 3f
       0.15721254 -2.4726763 -0.2011422 1.2686834
000140 90 1f bf bf 18 2f 62 3f 1a 5c f9 be 4f b0 0c c0
       -1.4931507 0.8835311 -0.4870308 -2.198261
000150 29 01 14 c0 ac 8e f5 bf cd 0d 41 3f 6f 30 ac be
       -2.3125708 -1.9184165 0.75411683 -0.33630702
000160 06 8e 19 bf c1 80 8c 3e 89 6d 88 3f fe 1d b7 3f
       -0.59982336 0.2744198 1.0658427 1.4306028
000170 bb 2e 03 c0 ae 9a 17 c0 32 7d 57 c0 af 51 37 3f
       -2.0497272 -2.368816 -3.3670163 0.71609014
000180 67 f5 93 be d6 10 36 bf 00 c1 00 40 ba dc 2e 3f
       -0.28898165 -0.7111944 2.0117798 0.6830555
000190 49 b9 94 3f 79 db 56 bf ee ab 05 40 26 2f cf bf
       1.1619045 -0.8392864 2.0886188 -1.6186264
0001a0 ea 0c 05 40 9b 84 b8 bf c8 6a 2f bf a9 aa 26 3f
       2.0789132 -1.4415468 -0.6852231 0.65104157
0001b0 40 d7 8d 3e 48 14 e8 bf 3e 42 f7 be 80 a3 50 3f
       0.27703285 -1.8131189 -0.48292726 0.8149948
0001c0 5a 04 c4 bd c9 0c 22 be 13 d4 c8 3e f3 a4 e0 bc
       -0.095711425 -0.1582519 0.392243 -0.027422404
0001d0 4c 64 e1 3e d1 af d8 be 40 41 90 3f c7 ef 3f bf
       0.44021833 -0.42321637 1.1269913 -0.74975246
0001e0 7f 73 08 3c 70 b0 24 c0 c2 e8 bc bf 1d 20 a5 bf
       0.008328318 -2.573269 -1.4758532 -1.2900425
0001f0 37 cf ac 3e b6 28 6a 3d ee 68 86 bf ee 87 05 40
       0.33751842 0.05716773 -1.0500772 2.0864215

bn1.running_var f4 [128]
000000 2f 00 fd 3f 5b 71 c7 40 3c 88 21 3f 9c ed 01 40
       1.9765681 6.2325873 0.630985 2.0301275
000010 8d 31 e4 40 42 10 d6 3f b4 af 0a 3f 41 80 dc 3f
       7.1310487 1.6723711 0.5417435 1.722664
000020 fb a6 9c 3f 25 af a0 40 b4 42 15 40 48 08 46 3f
       1.2238458 5.02138 2.3321962 0.77356386
000030 2b c2 65 40 a5 5f b6 40 3f 7d 0f 3e d4 25 12 40
       3.589976 5.6991754 0.14012621 2.2835588
000040 a2 c8 01 3e 47 ad d2 3f f0 cb 0b 40 85 7e be 40
       0.12674192 1.645913 2.1843224 5.9529443
000050 d3 41 7d 40 da ca b6 40 40 2c be 3f 4e a1 ce 3d
       3.9571426 5.712262 1.4857254 0.1008936
000060 af c3 7c 40 14 65 98 40 4d 36 b0 3f 3f f2 a3 3f
       3.9494436 4.7623386 1.3766571 1.2808303
000070 fc 8f 4f 3f 8f 03 b0 3f 06 e5 ba 3e df dd 66 3e
       0.8107908 1.3751086 0.36502856 0.22545575
000080 9c cc 8c 3f 18 22 99 3f 45 52 22 40 1a 78 ea 3f
       1.0999942 1.196353 2.5362713 1.8317902
000090 b2 d2 fc 40 16 de 94 3f 43 08 1f 40 7d 15 98 3e
       7.9007196 1.1630275 2.4848793 0.29703894
0000a0 27 f4 08 3f 54 36 65 40 ce fe 8d 40 bb b4 9e 3f
       0.53497547 3.581441 4.437354 1.2398905
0000b0 d6 09 59 3f 34 0a 02 40 76 92 3d 41 ea 47 54 40
       0.84780633 2.0318727 11.848257 3.3168893
0000c0 b6 7b 01 3f 32 9f 2e 40 c6 cf dd 40 a1 c5 40 3f
       0.5057939 2.7284665 6.931613 0.7530156
0000d0 b9 8a ec 3f 97 19 0d 40 f7 9e 34 40 a2 82 6c 40
       1.8479835 2.2046869 2.8222024 3.6954732
0000e0 9a e3 19 40 fc 6a 94 40 9d 70 e4 3e 87 b8 34 40
       2.4045167 4.6380596 0.44617167 2.8237627
0000f0 de 74 d0 3f 67 b8 35 40 0b 6a 40 3e f6 8f 40 3f
       1.6285665 2.83938 0.18790452 0.75219667
000100 16 e1 f1 3d da 4f 88 3f 3e 4b 3e 40 87 06 04 3f
       0.1181051 1.0649369 2.9733424 0.5157246
000110 3c fd 75 3e 03 4c 1c 40 36 b1 bd 40 46 9a e3 3f
       0.24022382 2.4421394 5.927882 1.7781456
000120 e4 c0 91 3e 7b b2 f0 3f ad aa 8a 40 e1 e7 6b 40
       0.28467476 1.8804468 4.3333344 3.6860278
000130 f5 af d7 3d f7 e4 13 40 85 72 cf 3e 74 2b ce 3f
       0.10531608 2.31085 0.4051706 1.6107011
000140 d3 36 22 40 19 46 e1 3f ba a4 36 40 19 bc 21 40
       2.5345962 1.7599517 2.853804 2.5271056
000150 29 26 b3 3f 28 45 ae 40 aa 9e 9a 3f 2a e8 c3 3e
       1.399602 5.445942 1.207967 0.38263065
000160 3b ee da 40 ed 25 ea 3e dd ac 17 40 a9 77 68 40
       6.841581 0.4573206 2.3699257 3.6323035
000170 42 bc 4a 3f 9d db 68 3f 15 64 48 41 a8 94 85 40
       0.7919351 0.90960103 12.524434 4.1743965
000180 c7 90 37 40 16 c1 10 40 86 a8 b0 3e 31 64 b1 3f
       2.8682115 2.261785 0.34503573 1.3858701
000190 a2 ae c3 40 02 6e b0 3e e2 be 9c 40 d7 b6 cd 3f
       6.1150675 0.3445893 4.898301 1.6071423
0001a0 13 d2 2c 40 dc 9f ab 40 70 b7 40 40 09 75 cf 3f
       2.700322 5.363264 3.0111961 1.6207591
0001b0 dd e3 03 40 4a 46 b3 3f 74 c9 03 40 42 70 9c 3e
       2.0607827 1.4005826 2.0591707 0.30554396
0001c0 3c 95 33 40 e8 bf a4 3f 39 ce 51 3f 2f 77 14 3f
       2.8059835 1.2871065 0.81955296 0.5799436
0001d0 3e a6 ad 3e 84 0d 59 40 98 f5 63 40 2f 5f 45 40
       0.33915895 3.39145 3.5618649 3.0839345
0001e0 21 6a 6b 3f ce fe 0c 40 bf 18 78 3f b1 fa ea 40
       0.91958815 2.203052 0.9691276 7.343102
0001f0 c5 34 a2 3f 53 68 c9 40 61 73 29 40 74 9c 2b 3f
       1.2672354 6.293985 2.6476672 0.67035604

fc2.weight f4 [128, 128]
000000 27 f9 b9 3d 65 bd 98 3d 36 b0 d9 3c 32 99 11 3e
       0.09080725 0.07457999 0.026573282 0.14218596
000010 30 d8 93 3d ec ba 5a 3c 76 70 2a bc 5f 75 45 bb
       0.07218969 0.01335023 -0.010402789 -0.0030129773
000020 89 d3 87 3d 3a 4d a3 bd 6f 48 64 3d f7 4f 47 3d
       0.06632144 -0.07973714 0.05573314 0.048660245
000030 d7 e8 a0 3d 33 a6 a1 3c 7e 40 c7 ba 19 4a 18 3d
       0.07856911 0.01973257 -0.0015201715 0.03718004
000040 77 70 05 3e 9c 5f 03 bd ce 4a 83 3d cf 17 8e bc
       0.13031183 -0.032073602 0.06410752 -0.017345337
000050 9c fe ba bc 64 2f e9 3c 51 6b 1f bc 3b 93 be 3c
       -0.022826485 0.02846498 -0.009730176 0.023263564
000060 b5 d2 a7 bc 2b 4e 5c 3d a7 e8 31 3d 27 7b 41 3d
       -0.020486215 0.053785484 0.043434765 0.047236588
000070 97 56 11 3e b3 d2 8f bd 8a c2 f4 bd d8 c8 5c bd
       0.14193188 -0.070226096 -0.11951168 -0.053902477
000080 b2 1f bc 3c 86 fe c8 3d 1d 42 27 bd d2 ee 3e bd
       0.022964332 0.098141715 -0.040834535 -0.046614476
000090 14 23 08 bc 4f 0d 12 3d 57 39 90 3c 3f 22 e3 bc
       -0.0083091445 0.035657223 0.017605467 -0.02772629
0000a0 85 7a 92 bd a7 42 c5 bd 43 c0 19 bd 42 31 cc 3d
       -0.07152275 -0.096318536 -0.03753687 0.09970333
0000b0 9a a1 5b 3c 8d 94 e9 bb 3b 55 9a 3c 26 20 15 3c
       0.013405228 -0.0071283043 0.01883947 0.009101903
0000c0 79 ec 0f bd e1 1d ac 3d 81 15 1a 3d 88 79 ee bd
       -0.035137627 0.084041364 0.037618164 -0.11644274
0000d0 90 2f a9 3d d8 99 d2 bb c1 7c 5e bd 59 06 f3 bb
       0.08261025 -0.006427031 -0.054318193 -0.007416528
0000e0 a6 05 9e ba 07 21 d0 3d ce e2 93 3d 9f c5 56 bd
       -0.0012056127 0.101625495 0.07220994 -0.05243456
0000f0 20 85 59 3b ee 9f 22 bc 4f 56 c3 3d 38 3e 67 3d
       0.003319092 -0.0099258255 0.095379464 0.05645582
000100 9a ca dd bc e2 69 b6 3d 4a c2 5e 3c 7e f2 d1 bc
       -0.027074147 0.08906914 0.013596127 -0.025628325
000110 3a ee 8b 3c 41 11 b4 bd 89 9b 31 bd a7 e7 8c 3d
       0.017081369 -0.087923534 -0.04336122 0.06880122
000120 3d 05 6b bc ac f1 a8 3c 95 5a dc bc 7f f3 45 bd
       -0.014344511 0.02062305 -0.026898662 -0.04832792
000130 b7 37 e1 bd b6 ba 92 3d 47 c4 98 bc 2c c3 f7 3c
       -0.10996955 0.071645185 -0.01864828 0.030244432
000140 ba 93 c3 3d 81 e1 5a bd 9b 38 c0 3d c3 ea 8d bc
       0.09549661 -0.053437714 0.09385797 -0.017323857
000150 1f a0 83 3d 71 e3 d5 3d 95 cd 77 bc ce db a2 3a
       0.06427025 0.10443772 -0.015124698 0.0012425126
000160 2e ce f4 3b ab e1 bf 3d 68 fa 9b bd 26 81 35 3d
       0.0074708676 0.093692146 -0.076161206 0.04431262
000170 dc a0 4f 3d a8 19 9a bd b4 3c c3 3b 29 00 e8 3c
       0.050690517 -0.07524425 0.005958164 0.028320389
000180 2d 13 9a bd 92 c8 0d 3e c4 eb 68 3d 05 09 8f bc
       -0.07523189 0.13846043 0.05686547 -0.017460356
000190 0d 71 8c b9 14 4a a0 3b 7f f9 9d bc 14 d7 69 3c
       -0.0002678711 0.0048916433 -0.019284008 0.01427247
0001a0 90 70 05 3d 86 2e 73 bc 2f b3 5d bd a8 1c c1 3c
       0.03257805 -0.014842635 -0.05412596 0.023573235
0001b0 9d 8d d4 3d 49 0d 10 bb 5c 77 9a 3c b5 6b c2 bc
       0.10378573 -0.0021980575 0.018855743 -0.023733
0001c0 f7 54 bf 3c d9 b8 ab 3b 41 6a e1 bc 10 4a 13 3d
       0.023355944 0.0052405414 -0.027516486 0.035959303
0001d0 4c 99 a0 ba 89 d4 80 3d a3 f9 4b 3d e2 c1 9a 3c
       -0.0012252717 0.06290538 0.04979862 0.018891279
0001e0 7a a7 a8 3c e7 db 49 3d 6c 94 af 3b 10 bf 8c 3d
       0.020587672 0.04928198 0.0053582694 0.0687238
0001f0 33 d6 bf bc e7 05 00 bd b3 16 16 39 2f 19 0e 3d
       -0.023417568 -0.03125563 0.00014313571 0.034691986
000200 49 80 60 3d a2 2f ac 3c 6a 7d 7a bd 25 ea 97 3d
       0.054809842 0.021018807 -0.06115476 0.074177064
000210 76 d8 fb 3b 37 46 d6 3c 30 3e d9 3d 13 af 83 3d
       0.0076857163 0.026156528 0.106075644 0.06429877
000220 f9 03 9a 3d 60 43 40 bc 6a 75 bf bd 24 dc d9 bb
       0.07520289 -0.011734813 -0.09348567 -0.0066485573
000230 15 5b 15 3c d1 82 21 bd 10 81 91 bc 31 e2 82 3c
       0.009115954 -0.039431397 -0.017761737 0.015976997
000240 e1 eb 90 bd a5 e9 06 3e 22 bf 39 bc ed cd e4 3b
       -0.0707624 0.13175066 -0.0113370735 0.006982556
000250 f8 b8 69 bd 8f 3f 2d bd b0 99 91 3d bc 5d 96 bc
       -0.057061166 -0.042296942 0.07109392 -0.018355243
000260 99 b0 cc bc d6 ec c2 bc c4 c1 83 bc be 2f e6 3d
       -0.024986552 -0.023794573 -0.016083606 0.11239575
000270 64 e5 12 3e 8f b6 0a bd b9 f6 48 3d 38 c8 17 be
       0.14345318 -0.033865508 0.049063418 -0.14822471
000280 a5 60 43 bd 55 42 c1 bb 12 85 95 bd d3 36 8f bc
       -0.04769959 -0.0058978 -0.07300772 -0.017482197
000290 12 5c 07 bd b4 d5 3d bd ea f7 0b bd 9c 30 e1 bd
       -0.03304679 -0.04634638 -0.034171976 -0.109956
0002a0 20 1c c2 3c c3 5e d7 3d 66 e1 a7 3d 5f 86 fd bc
       0.023695052 0.10516121 0.08197288 -0.030947862
0002b0 67 43 9f 3d bf 7e ad 3d e4 25 3d 3d 67 51 30 bc
       0.07776528 0.084714405 0.046178713 -0.010761595
0002c0 e7 01 a4 3b 64 30 b2 3d d9 96 43 bc fe 04 0a bd
       0.0050051096 0.08700636 -0.01193782 -0.033696167
0002d0 1c dc 14 3a d9 40 b5 3d 04 e2 c9 3d 5d 9c dd 3c
       0.0005678551 0.08850259 0.09857562 0.027052099
0002e0 f9 aa 53 bd 32 f7 73 3d aa 22 52 3c b5 7e 62 bc
       -0.051676724 0.059561916 0.012825647 -0.013824155
0002f0 52 1c 2a bc 37 51 19 3d bf 6d 74 3c 06 08 aa 3d
       -0.010382729 0.037430968 0.014918744 0.083023116
000300 05 b6 07 3e b9 69 71 3d 62 1f 5d 3d b3 29 a5 bd
       0.13253029 0.058938716 0.053985007 -0.08064594
000310 69 ef 01 3d 3a 95 8c bd 80 4b 17 bd c2 d9 10 3d
       0.03172246 -0.068644 -0.036937237 0.03536392
000320 02 78 66 bc f1 96 05 3e 9d 17 3d 3d 93 fc 12 3c
       -0.014066698 0.13045861 0.046165098 0.008971351
000330 d5 01 39 3d 2e 28 96 bd c5 37 31 bd 02 d0 db 3d
       0.045167763 -0.073318824 -0.043266077 0.10733034
000340 2d 9d ad 3c 95 b7 b0 bd 78 44 4b 3d 77 18 85 3d
       0.021193111 -0.086287655 0.049625844 0.06498807
000350 03 f7 83 bd f9 7c 83 3d 49 33 ba 3a 49 ec 81 3c
       -0.06443598 0.06420321 0.0014205958 0.01585974
000360 33 a6 65 bd c4 a6 4b 3c b6 e9 5a 3c 4e c7 95 bd
       -0.056066703 0.012429897 0.013361385 -0.07313405
000370 79 ac 0d be 44 7b 63 3d 3f 62 d2 bc ef c2 8d 3a
       -0.13835324 0.055537477 -0.025681613 0.0010815541
000380 54 db 24 bd c6 03 23 3e 3f 49 ac 3d 6a 0a cf 3d
       -0.04024823 0.15919408 0.08412408 0.10109408
000390 54 94 83 3d 49 1d 95 3c c9 ef 09 bd 96 84 02 3d
       0.06424776 0.01820244 -0.033675943 0.031864725
0003a0 ee 56 56 3c 1d 18 80 3c 45 99 f6 bc af 1c 9b bd
       0.013082249 0.015636498 -0.030102381 -0.0757383
0003b0 d3 e7 a9 3d 8e f2 37 bd 8a 1f f0 ba e0 f4 80 3b
       0.0829617 -0.044909053 -0.0018319946 0.0039354414
0003c0 c9 91 9c bc 28 28 34 bb ae 4f cc bb 5e 33 ee 3d
       -0.019112485 -0.0027489755 -0.0062350845 0.11630891
0003d0 6d a6 b2 bb 14 30 10 3e 54 35 b9 bc 2e bc f8 bc
       -0.0054519684 0.1408084 -0.022608437 -0.030363169
0003e0 d3 ec 06 3d 15 71 a3 bd b9 ce ad bd 7f 3b fc 3c
       0.032940697 -0.07980553 -0.08486695 0.030790089
0003f0 cc d3 5e 3d 87 f5 de 3b 0a d3 5f 3c ed 33 68 3c
       0.054401204 0.0068041715 0.0136611555 0.014172536

fc2.bias f4 [128]
000000 df 6e 6e 3d 62 f5 3b 3d f0 9e 22 3d 22 98 a3 3d
       0.058211204 0.045888312 0.039702356 0.079880014
000010 1b a3 85 3c bb de 1f bd 1b de 24 3d b5 8c 0c bc
       0.016313126 -0.03903077 0.04025088 -0.008578469
000020 11 3f b2 3d ae 21 8c bd 0d 4d 52 bd bd 04 6a 3d
       0.08703435 -0.068423614 -0.051343013 0.057133425
000030 46 44 6d bd 9e 3b 45 3d a3 5f 6e bd 7d be db 3c
       -0.05792644 0.04815256 -0.058196675 0.02682423
000040 4b 7d 9b 3d 91 bb 10 3d bf 85 57 bd c3 3c 10 3d
       0.07592257 0.035335127 -0.052617785 0.035214197
000050 7f 37 46 ba 71 98 94 bc 05 10 b2 bd 02 e2 6e bd
       -0.000756137 -0.018139096 -0.08694462 -0.058321007
000060 05 32 f6 bc 4d 87 86 3d 4b 18 7a bd de f8 a8 bd
       -0.030053148 0.06568775 -0.061058324 -0.08250593
000070 0e 50 84 bd 12 ae e9 3c ec 78 a1 bd 8f e2 b4 bd
       -0.06460582 0.028525386 -0.07884392 -0.08832275
000080 ab 7f 26 3b bf 61 aa bd 36 f4 8f 3c 7e 33 20 bc
       0.0025405686 -0.08319425 0.017572504 -0.009777902
000090 3d 56 a4 3d 5b 2b 06 bd 6d 4e a7 bd e0 ae 52 bd
       0.08024261 -0.03275619 -0.081692554 -0.051436305
0000a0 05 06 8a bb 69 e0 11 bd e2 0f b1 3d 23 65 8d bd
       -0.0042121434 -0.035614405 0.086456075 -0.06904056
0000b0 ac d6 ad bd 90 cb 1d 3d 2a aa ac bc 58 ee 60 3d
       -0.08488211 0.03852421 -0.021077234 0.054914802
0000c0 28 04 71 3c 18 da f8 3c 6b cd 81 3d 5d e8 37 bc
       0.014710464 0.030377433 0.063380085 -0.011224833
0000d0 d3 b8 17 bd 93 db 01 bd 99 3b bd bc 15 b7 a1 bd
       -0.037041496 -0.031703543 -0.023099707 -0.07896248
0000e0 4a 18 95 3d f0 ee 1d 3d 45 77 fd bc 40 34 8e 3d
       0.072800234 0.038557947 -0.030940661 0.0694356
0000f0 51 a6 10 3d 0a e8 15 3d d6 0b 54 3d aa b2 6c 3c
       0.03531486 0.036598243 0.0517691 0.014446894
000100 a6 39 df bb f2 f1 88 3d ce ca e8 3c 24 10 73 3d
       -0.006812292 0.066867724 0.028417017 0.059341565
000110 c1 f9 4a 3d bd d4 70 bd 24 cd b4 bc 4c 2a 8d 3d
       0.04955459 -0.058796633 -0.022070475 0.06892833
000120 42 32 82 bc cf 21 1d bd 08 30 1d bd 15 7e 8f bd
       -0.015893105 -0.03836232 -0.038375884 -0.0700647
000130 0a e0 54 3d fd 87 51 3d 68 15 46 bd f5 03 b0 bd
       0.051971473 0.05115508 -0.04836026 -0.08594505
000140 8a cd a9 3c 24 f8 b1 3b 36 59 7e 3d c3 d9 94 3c
       0.020727891 0.005431192 0.062096797 0.018170243
000150 29 80 5b bc bf 32 5d 3d e6 8d 6e 3d ca bb 37 3d
       -0.013397255 0.054003473 0.058240794 0.044856824
000160 a2 04 79 3d 57 1a a4 bd b4 14 17 3d 09 3f 47 3d
       0.060795434 -0.080128364 0.03688498 0.0486441
000170 29 b0 5b 3d 70 90 12 bd aa 85 ae 3c 8d 08 93 bd
       0.053634796 -0.035782278 0.02130397 -0.07179365
000180 df b2 90 3d 36 a8 d0 3b ed 29 7c 3d 4e 54 c7 3c
       0.07065367 0.0063677086 0.06156342 0.024332192
000190 e5 2f 23 bd fe dd 48 3d 79 ed 69 3d 5c 9b 3f bd
       -0.039840598 0.049039833 0.057111237 -0.04677902
0001a0 bc f8 f8 3b 9c 63 40 bd 5e 6c 81 bd c8 27 0c 3d
       0.007598011 -0.046969995 -0.063194975 0.034217626
0001b0 ed a7 97 bd 70 e2 09 3d 26 c5 89 bd 22 fe 54 bb
       -0.07405076 0.033663213 -0.06727056 -0.0032500108
0001c0 bb f3 02 bd dd 03 2b 3d 8d b7 a8 3d b6 52 87 bd
       -0.03197072 0.04175173 0.082381345 -0.06607573
0001d0 9d de c6 bc b3 64 6a bc 5d 74 9f bd 76 59 a0 bd
       -0.024276072 -0.014306235 -0.077858664 -0.07829563
0001e0 f7 38 27 bd 86 d3 9d bc 06 46 9d 3d c8 fd e3 3c
       -0.04082581 -0.019265901 0.076793715 0.027830973
0001f0 cb 3c 9d 3d ac 2a 93 bd e9 d7 3f bd a6 04 1c 3c
       0.07677611 -0.071858734 -0.046836767 0.009522593

bn2.weight f4 [128]
000000 fd cc 82 3f b3 21 83 3f 40 1c 82 3f dd 6b 78 3f
       1.0218807 1.0244659 1.0164871 0.97039586
000010 cb 5b 80 3f b7 9b 78 3f 52 7e 80 3f f0 34 7a 3f
       1.0028013 0.971126 1.003855 0.97737026
000020 72 78 77 3f 80 65 78 3f cc 2d 83 3f 4c 9c 85 3f
       0.9666816 0.97029877 1.0248351 1.0438323
000030 c3 e5 7e 3f fa 0c 78 3f 18 6a 83 3f 47 f7 7c 3f
       0.9956934 0.968948 1.0266752 0.98814815
000040 2f 0f 7e 3f 45 3b 78 3f 0b 0d 7c 3f 0b a2 79 3f
       0.9924192 0.9696544 0.984574 0.9751288
000050 18 3a 83 3f e9 d5 75 3f 4c c6 79 3f a2 c5 7c 3f
       1.0252104 0.96029526 0.975682 0.98739064
000060 9b e5 85 3f 98 d1 81 3f e2 7c 7c 3f ef 21 7a 3f
       1.0460695 1.0142088 0.98628056 0.9770803
000070 63 aa 7c 3f 9c 9a 7d 3f 30 50 77 3f df cf 81 3f
       0.9869749 0.9906404 0.9660673 1.0141562
000080 4d f1 80 3f d6 b4 82 3f a7 03 7e 3f 1a 4c 82 3f
       1.0073639 1.0211437 0.99224323 1.0179474
000090 eb f8 7c 3f 86 a6 83 3f 73 de 80 3f 90 6b 87 3f
       0.9881732 1.0285194 1.0067886 1.05797
0000a0 97 1a 7a 3f a1 eb 84 3f 1c f7 7c 3f 32 57 77 3f
       0.9769682 1.0384408 0.9881456 0.96617424
0000b0 b4 70 81 3f 94 3c 80 3f 69 d2 82 3f ab fe 78 3f
       1.0112519 1.0018487 1.0220462 0.9726359
0000c0 1c 96 80 3f 94 f2 7c 3f 75 c5 7b 3f 12 70 82 3f
       1.004581 0.98807645 0.9834817 1.0190451
0000d0 c2 c7 82 3f fa 01 77 3f 09 61 82 3f a6 a5 80 3f
       1.0217211 0.9648739 1.0185863 1.0050552
0000e0 07 89 7d 3f c0 c6 7d 3f e3 a3 75 3f dc 99 7c 3f
       0.9903721 0.99131393 0.95953196 0.9867227
0000f0 71 25 84 3f 1d 66 78 3f f8 6f 7c 3f 9c 9c 80 3f
       1.0323926 0.9703081 0.9860835 1.0047793
000100 aa 31 7f 3f 12 04 7f 3f 71 24 84 3f e9 0b 81 3f
       0.99685156 0.99615586 1.0323621 1.008176
000110 b1 98 80 3f 76 e0 80 3f 78 90 7f 3f f1 ca 86 3f
       1.0046598 1.00685 0.99829817 1.0530683
000120 02 a8 7e 3f eb cd 7b 3f 12 67 80 3f c0 1a 80 3f
       0.9947511 0.9836108 1.0031455 1.0008163
000130 17 ce 78 3f 66 0f 85 3f d5 be 80 3f e7 f7 7a 3f
       0.9718947 1.0395324 1.0058237 0.9803452
000140 2c 7d 81 3f 63 0c 82 3f 8d cd 7e 3f fc 60 84 3f
       1.0116324 1.016003 0.99532396 1.0342097
000150 44 f7 81 3f 55 7b 80 3f de 29 85 3f ab 79 80 3f
       1.0153584 1.0037638 1.0403402 1.003713
000160 ec b9 82 3f f2 68 80 3f 23 36 72 3f be 2b 86 3f
       1.0212989 1.0032027 0.94613856 1.0482099
000170 0a 83 7d 3f 5d 52 7c 3f 34 d1 80 3f 48 71 80 3f
       0.99028075 0.98563176 1.0063844 1.0034571
000180 05 9a 81 3f 2d 47 81 3f 7c 7e 80 3f 26 cf 7e 3f
       1.0125128 1.0099846 1.00386 0.99534833
000190 76 8c 81 3f 08 44 80 3f 55 17 7c 3f 33 49 7e 3f
       1.012099 1.0020761 0.984731 0.99330443
0001a0 1f 0b 80 3f a8 62 7c 3f 20 44 80 3f 0e 88 82 3f
       1.0003394 0.9858804 1.002079 1.019777
0001b0 f0 8c 85 3f 20 42 7f 3f c4 68 81 3f 66 75 83 3f
       1.0433636 0.99710274 1.0110097 1.0270202
0001c0 6a c8 7b 3f d5 a4 75 3f cb 17 80 3f 3b 9b 7d 3f
       0.9835268 0.9595464 1.0007261 0.9906499
0001d0 2b 9b 82 3f ba 6a 80 3f ee 85 7c 3f 76 e4 77 3f
       1.0203604 1.003257 0.9864186 0.9683298
0001e0 a0 1d 78 3f a1 7a 73 3f d5 31 7f 3f 01 e1 83 3f
       0.96920204 0.9510899 0.9968541 1.0303041
0001f0 e9 a8 80 3f 9c 2b 83 3f 92 06 7b 3f 80 d4 7e 3f
       1.0051547 1.0247684 0.980569 0.99543

bn2.bias f4 [128]
000000 62 eb 95 bd 09 df ef bd 43 d1 55 bd a1 f3 0f 3c
       -0.07320286 -0.117124625 -0.05220152 0.008786113
000010 54 4c 4f bd 80 54 26 3c 0f fa 09 be 83 99 97 3c
       -0.0506099 0.010151982 -0.13474296 0.018505817
000020 0a 91 08 bd cb 2d 3c be 72 96 ec bd ef dc b5 bc
       -0.033341445 -0.18376844 -0.11552133 -0.022200076
000030 0d 3f bb bd 69 11 b4 3d 0f d1 c7 bd 78 bc 41 3c
       -0.09142885 0.08792383 -0.09756672 0.01182472
000040 a2 28 b4 bd e7 2c 2d 3d 0b 6b 2a be 93 9b 30 be
       -0.087968126 0.04227915 -0.16642396 -0.17246847
000050 05 ad 3b bd eb 99 d3 bc 50 ac d7 bd 3f 66 71 bd
       -0.0458193 -0.02583023 -0.10530913 -0.0589354
000060 c4 4b b2 bd 67 80 81 bd a6 1c df 3b 3d e6 79 bd
       -0.087058574 -0.06323319 0.006808835 -0.061010588
000070 e2 76 fc bd f2 83 f3 bc ba 82 4e bc 53 1b 0f be
       -0.123273626 -0.029726002 -0.01260441 -0.13975267
000080 9e 98 3a be 78 21 21 bd 39 ab 30 3d 78 c9 6a be
       -0.18222281 -0.03933856 0.04313204 -0.22928417
000090 dd c0 0e bd 26 fe c6 bc 5a 9a be bd 8d 72 1f bd
       -0.034851898 -0.02429111 -0.09306784 -0.038927604
0000a0 31 0c 9b bd 5e 52 f3 bd 2d 0c 90 3d 36 26 88 3d
       -0.07570685 -0.11880945 0.07033572 0.06647913
0000b0 bc b0 8c bd 61 16 4d bd 17 1d fa bd 96 a2 60 bd
       -0.06869647 -0.05007017 -0.1221258 -0.054842554
0000c0 a0 4b ae bd 22 dd 3f bd e3 86 10 be 99 a7 45 3d
       -0.08510518 -0.046841748 -0.14113955 0.048255537
0000d0 81 85 b5 bd 04 61 06 be 98 cc db bd 88 44 0c be
       -0.088633545 -0.13122946 -0.107323825 -0.13698018
0000e0 40 00 a4 bd a1 cd 49 3d 19 fc 50 bc ab 85 9d bc
       -0.0800786 0.04926837 -0.012755417 -0.019228777
0000f0 a8 fd cb bb 0c 57 d1 bd 47 27 7a bd 9b dd b7 bd
       -0.0062253065 -0.10221681 -0.061072614 -0.08977815
000100 e7 6f a8 bd 3a 00 50 be a1 d9 a3 bd e1 0a 25 bd
       -0.08224469 -0.20312586 -0.08000494 -0.040293578
000110 4a c1 47 be df 5b 48 bd 5a 2b 9d bd df 92 8b bd
       -0.19507328 -0.04891574 -0.07674284 -0.06815123
000120 45 a1 02 bc d9 9d 64 bd 07 50 eb bd 71 7e a9 bd
       -0.00797302 -0.055814598 -0.114898734 -0.0827607
000130 72 0d d4 bd 4d de 0b 3c 70 70 5d 3d 41 0c d7 bd
       -0.10354127 0.008536887 0.054062307 -0.10500384
000140 28 4c 08 be aa 21 48 bd 57 1a 57 3c 93 09 02 3c
       -0.13310301 -0.04886023 0.0131288385 0.007936853
000150 16 51 1e bd 4c 63 7a bd 3f 48 b6 bd a4 c2 cc bd
       -0.03865155 -0.061129853 -0.089004986 -0.09998062
000160 ca 39 c2 bd 14 c0 a9 bd 9d 0d 03 3d 5f 01 29 3c
       -0.09483679 -0.08288589 0.031995405 0.010315268
000170 6a 12 91 bd 6d c1 82 bd c7 de cd bc a4 fa 9b bd
       -0.0708359 -0.06384549 -0.025130643 -0.07616165
000180 ef c6 65 bc f2 e1 95 bd a1 28 b7 bd a9 8b 30 be
       -0.01402448 -0.07318486 -0.08943296 -0.17240776
000190 17 39 bf bd 72 db 0f bd 39 e4 c6 bd 8b 2a 0b bc
       -0.09337061 -0.03512139 -0.09711499 -0.00849403
0001a0 63 36 92 bc 11 16 11 bd 5a da da bd 36 26 3b bc
       -0.0178482 -0.035421435 -0.106861785 -0.011422684
0001b0 b9 6a 39 bd f4 a8 84 bd 44 6b 2a bd ff 28 df 3b
       -0.045267794 -0.06477538 -0.041606203 0.006810307
0001c0 43 39 11 bd bc 5e dc bc 71 d3 6d bd 2f 67 23 bd
       -0.035455 -0.026900642 -0.058062974 -0.039893325
0001d0 34 ac 3b 3c a4 a2 66 bd e1 9d ec 3c 37 95 7e bd
       0.011454631 -0.05630745 0.028883876 -0.06215402
0001e0 3d 27 a6 bd 98 b7 13 bd 90 43 f1 bd 4c 34 bf bd
       -0.08112953 -0.03606376 -0.11780465 -0.09336147
0001f0 84 29 9e bd f8 55 41 bd b2 95 0c bd e6 9f 8f bd
       -0.07722762 -0.047201127 -0.034322448 -0.0701292

bn2.running_mean f4 [128]
000000 3d 92 43 3f a7 dc 20 3f 1b 4f 04 3f a8 d0 90 3e
       0.76395017 0.6283669 0.51683205 0.28284192
000010 a1 4d b0 3e 5b 6a d9 be 88 9a 34 3f f1 10 3f be
       0.34434226 -0.42463955 0.70548296 -0.18658806
000020 b9 43 ae bd df 51 c7 3d f0 5a b3 3b a0 9f 0b 3e
       -0.08509011 0.097324125 0.005473487 0.13635111
000030 d2 a9 18 3d 3b 1f 99 be ee 17 85 bd ff df 28 be
       0.03727133 -0.2990664 -0.06498705 -0.16491698
000040 8b 15 3b 3f ee 2a 06 bf 54 5a dc 3c f6 c2 09 3d
       0.73079747 -0.52409256 0.02689854 0.033633195
000050 d3 a1 4d 3e fb ae f9 be 1e 5c 60 be ed 83 ea be
       0.20081262 -0.48766312 -0.2191014 -0.45803776
000060 f8 7c f6 3e 0b 73 11 3f f8 9c 9e be 3a b3 7e be
       0.4814222 0.56816167 -0.30979133 -0.24873057
000070 9b 32 4b 3d a5 29 69 3b 6f f9 70 be f9 c6 03 3f
       0.049608808 0.00355778 -0.23532651 0.51475483
000080 c3 ce 19 3f a4 e4 22 3e 83 0e 44 bf 8b 83 b6 3e
       0.6008112 0.15907532 -0.76584643 0.35647234
000090 1e aa dd bd 12 1a 1e be 38 f7 5b 3e e5 68 b1 3e
       -0.10823463 -0.15439633 0.21481025 0.3465034
0000a0 b2 37 91 be f0 e4 b3 3d 18 65 5a bd 44 c6 0b bf
       -0.28362805 0.08783901 -0.053319067 -0.54599404
0000b0 ad a5 a9 3d 21 cf 40 3b aa 83 da 3e 47 de 0e 3c
       0.08283553 0.0029420333 0.42678577 0.008719987
0000c0 93 6e c1 3d 38 d2 5b 3e a7 69 e5 3d a8 32 13 bf
       0.094449185 0.21466911 0.11201792 -0.5749917
0000d0 ce 04 82 3e 47 7b 52 3e 7c fe cb bd 70 fb 54 3e
       0.2539429 0.20554839 -0.099606484 0.20799041
0000e0 b3 d7 d9 bc e0 fa 22 be 7e 39 71 be 84 44 2c 3e
       -0.026592111 -0.15916014 -0.23557088 0.16823012
0000f0 4f a8 09 3e 87 d6 34 be 0d ac bc be 81 ed 78 be
       0.13443111 -0.1765996 -0.36850014 -0.2430935
000100 83 bf bd bc 43 26 17 3e 20 48 fc 3e 44 f6 31 3d
       -0.023162609 0.1476069 0.49273777 0.043447748
000110 cf 3d bd bd d5 31 28 be dd bc 65 bd bf e0 5f 3e
       -0.09240305 -0.1642526 -0.056088317 0.21863078
000120 00 a3 9a 3e 10 96 16 be 81 6c 16 ba a3 19 e6 3d
       0.30202484 -0.14705682 -0.0005738214 0.112353586
000130 9e fe 1a bd 85 4d 3e 3e 0e 5e f4 3c 7d 1e 8a 3e
       -0.037840478 0.18584259 0.029830005 0.26976386
000140 44 54 af 3e 84 50 73 3e 9d c1 40 3f 23 ad 11 3f
       0.34243977 0.23761183 0.7529543 0.5690481
000150 85 a8 23 bf 44 d5 30 3f 73 77 0f 3f a0 e6 39 3f
       -0.63929015 0.6907542 0.5604164 0.7261753
000160 ce e9 08 3d e5 b2 e8 bc a5 64 d4 be 27 f3 b7 3e
       0.0334261 -0.028405616 -0.41483036 0.35927698
000170 f7 f3 23 bf 24 d4 b6 3b eb cc 9f 3e 9d 91 d6 be
       -0.64044136 0.0055794884 0.31211028 -0.4190797
000180 0c c1 39 3f a4 ac 4f bd 1f c7 66 3e 17 75 4e 3f
       0.7256019 -0.050701752 0.22536896 0.80647415
000190 af 64 bf 3d 8b d4 08 3f a9 24 1d 3e 80 16 ab be
       0.09345376 0.53449315 0.15346016 -0.33415604
0001a0 18 d8 ea bc a8 c8 c6 3d ff b1 be 3e f6 e9 af 3e
       -0.028667495 0.09706241 0.37245175 0.34358186
0001b0 5b 9e 26 be 11 e1 91 3e 2b 7a 31 3d 26 9a ce 3d
       -0.16271345 0.28492025 0.0433294 0.10087995
0001c0 a2 01 4d bc 52 7a b5 3e 92 55 cf 3d 73 e0 13 bf
       -0.012512596 0.35444885 0.10123743 -0.5776436
0001d0 80 03 cb 3d c1 d4 eb 3e da b1 bb be ba 46 de bd
       0.09912777 0.46060756 -0.36659127 -0.10853334
0001e0 3c f6 7a be c6 22 33 3e ed 39 35 3f 00 90 ab 3e
       -0.24507993 0.17493734 0.7079151 0.335083
0001f0 5e c1 bd 3e ca 5b d7 3e 93 b1 85 bd 98 70 5f 3d
       0.3706159 0.42062217 -0.0652801 0.054550737

bn2.running_var f4 [128]
000000 9b 0e 4d 3e 0b ad 30 3e c9 9a 67 3e d1 c7 dc 3d
       0.20025103 0.1725351 0.2261764 0.107802995
000010 bd 42 43 3e 90 e0 8a 3e 3b d0 88 3e 39 a3 0c 3e
       0.19068427 0.27124453 0.26721367 0.1373414
000020 40 f9 34 3e b9 da 35 3e bc db 9c 3d 09 d1 42 3e
       0.17673206 0.17759217 0.076590985 0.19025053
000030 78 0f d5 3d e0 ef b2 3e 55 99 33 3e 1c 01 42 3e
       0.10403341 0.34948635 0.1753896 0.18945736
000040 d8 6d 64 3e 81 b4 89 3e f8 e6 17 3e 41 66 ab 3e
       0.22307527 0.26895526 0.14834201 0.3347645
000050 5c 78 21 3e 02 1b 7b 3e 37 41 d8 3d 57 5f 5a 3e
       0.1576857 0.24522021 0.10559314 0.21325432
000060 a1 a3 28 3e 43 8c 2a 3e 09 7b 4b 3e 15 d9 2b 3e
       0.1646867 0.16655068 0.19871153 0.16782029
000070 63 0c 36 3e 86 13 5e 3e 83 de 36 3e 42 21 47 3e
       0.17778163 0.21687135 0.17858319 0.1944628
000080 0a 59 5d 3e 4b 32 45 3e f1 36 2b 3e cd 01 19 3e
       0.21615997 0.19257466 0.16720177 0.14942093
000090 fc 94 b4 3d b8 3e 5f 3e 29 56 14 3e 0f 5d 19 3e
       0.08817479 0.21801269 0.14485992 0.14976905
0000a0 13 d8 65 3e c6 ba 2f 3e 54 9a ee 3d 59 d3 77 3e
       0.22445707 0.17161092 0.116505295 0.24201716
0000b0 bd 4a 20 3e 3b 69 c4 3d 39 69 b7 3e ba 9f e5 3d
       0.1565351 0.095903836 0.35822466 0.11212106
0000c0 8c 00 b7 3d e6 f6 6b 3e 6d 8e 59 3e 22 0a ac 3e
       0.08935651 0.23043403 0.21245737 0.3360148
0000d0 c7 36 15 3e 7c 97 2c 3e 3d ef bc 3d 1b ec 13 3e
       0.14571677 0.16854662 0.092253186 0.14445536
0000e0 f3 39 fb 3d 83 e7 ed 3e 95 db 1b 3e 9a 96 01 3e
       0.12266912 0.46465692 0.15220483 0.12655106
0000f0 c7 58 29 3e 52 a9 1e 3e 1b b7 5b 3e fe 6e 23 3e
       0.16537772 0.15494278 0.21456568 0.15960309
000100 b4 f3 0b 3e e2 de 30 3e fe 79 2d 3e 54 96 0f 3e
       0.13667184 0.17272523 0.16941068 0.1402219
000110 fd 5c 0c 3e 07 99 c4 3e f0 d7 64 3e 16 b3 71 3e
       0.13707347 0.38398 0.22347999 0.23603472
000120 de eb 12 3e 4c e3 38 3e 62 36 a5 3d 24 ce 91 3e
       0.14347789 0.18055457 0.08067013 0.28477585
000130 99 81 ed 3d be 84 8a 3e 00 ce 02 3e 66 88 6b 3e
       0.115969844 0.270544 0.12773895 0.2300125
000140 7d c0 33 3e 3d 66 db 3d ae e5 45 3e 2c 60 04 3e
       0.17553897 0.1071286 0.19325897 0.12927312
000150 32 78 81 3e 84 03 1e 3e 27 d9 1d 3e ab b7 20 3e
       0.25287014 0.15431029 0.15414868 0.15695064
000160 2d cd 41 3e f6 4a bd 3d 6f 60 cc 3e 38 c7 38 3e
       0.18925925 0.09242813 0.39917323 0.18044746
000170 c4 1f c0 3e dd df 82 3d ab c1 31 3e 48 28 66 3e
       0.37524235 0.06390355 0.17359035 0.22476304
000180 8c f7 3f 3e 6b 74 50 3e 32 9a 3b 3e 38 c6 07 3e
       0.18746775 0.2035691 0.1832054 0.13259208
000190 af fe 05 3e 7c 5b 40 3e fe 21 04 3e 5e 5c 51 3e
       0.13085435 0.18784899 0.12903592 0.20445392
0001a0 0e 39 e8 3d 54 64 a7 3e d7 90 0b 3e 95 b0 39 3e
       0.11339007 0.32693732 0.13629471 0.18133767
0001b0 9c a9 26 3e 2d c4 48 3e e5 b2 f1 3d bd 7a 7c 3e
       0.16275638 0.19606085 0.118016995 0.24656196
0001c0 db 73 06 3e 03 35 5d 3e 64 6f 11 3e fd 23 b3 3e
       0.13130133 0.21602254 0.14202648 0.34988394
0001d0 ac 51 36 3e c3 09 0d 3e 27 18 07 3e a6 8f 8c 3e
       0.17804593 0.13773255 0.13192807 0.27453345
0001e0 fe b5 12 3e 82 68 3e 3e bc db 73 3e e6 e7 23 3e
       0.14327237 0.18594554 0.23814291 0.16006431
0001f0 25 43 fa 3d 57 fe 7c 3e 18 d3 ba 3e 04 68 be 3d
       0.12219838 0.24706398 0.36489177 0.09297183
