models/checkpoint_critic_0.pth (torch, 86176 bytes, 9 tensors)

fc1.weight f4 [128, 24]
000000 24 da 90 3e 72 ba 2c bf 93 fc bb 3d 94 99 66 be
       0.28291428 -0.6747199 0.09179034 -0.22519523
000010 70 75 83 be 93 93 8e 3f 65 5a 2f 3c 14 c6 61 be
       -0.25675535 1.1138786 0.010702704 -0.22048217
000020 e3 65 c4 be 71 39 2d bf 8e ee ac bd b9 7d fc bc
       -0.38358983 -0.67665774 -0.08443938 -0.030821668
000030 68 88 57 be cf 44 68 3f 82 5c 3a bd 81 4f c6 3b
       -0.21048129 0.90729994 -0.04549838 0.006051958
000040 85 28 ec be 18 6f 69 bf 96 b6 27 be 49 93 8b 3d
       -0.46124664 -0.9118514 -0.16378245 0.06815202
000050 10 4c 23 3d a2 27 06 be b1 ed fd bd 4b 25 89 bd
       0.03986746 -0.13101056 -0.12398852 -0.06696566
000060 01 60 a8 be e3 6a 8a 3f c3 67 b2 bd c7 f7 74 be
       -0.32885745 1.0813869 -0.08711197 -0.23922645
000070 8e 16 69 be 62 09 d3 3e 03 96 6c 3d ae f4 03 be
       -0.2276251 0.41218096 0.05776025 -0.12886307
000080 b5 f6 d1 3d c4 f5 95 3f 93 4c 9b bd 9a c4 1c be
       0.10252134 1.1715627 -0.07582965 -0.15309373
000090 d4 72 0b 3c f0 8e 08 3f e8 11 bd bd 95 1f 76 bd
       0.008511264 0.53343105 -0.09231931 -0.060088713
0000a0 28 21 2a 3d a2 62 b7 3f b1 4c ef 3b a0 b4 47 3e
       0.041535527 1.4326975 0.0073028435 0.19502497
0000b0 ed 77 86 3d 8f ca a4 3f 13 11 46 bd 23 30 49 3e
       0.06565843 1.2874316 -0.048356127 0.19647269
0000c0 19 ff 6e be 5c 47 55 bb 0d 52 b7 bd 17 95 e7 3e
       -0.233395 -0.0032543754 -0.08951197 0.45230934
0000d0 df ae ee 3d a8 e7 51 bf 0b fd cd 3c c0 df fd 3e
       0.11654448 -0.81994104 0.025145074 0.4958477
0000e0 79 05 14 be eb d2 ed bc 6b 9b 2b be d7 2c 71 3e
       -0.14455213 -0.029031238 -0.16758506 0.23552261
0000f0 4c bd b8 3c ee fc 31 bf 4e a2 6f bd dc 88 80 3e
       0.022551201 -0.69526565 -0.058504395 0.25104415
000100 de 48 52 bf 4a 28 40 be d8 95 15 be ff 71 a5 3e
       -0.82142437 -0.18765369 -0.14607942 0.32313535
000110 84 33 41 bd f9 ec 5d bf 30 6a d3 bd 54 98 50 3e
       -0.04716827 -0.86689717 -0.10322988 0.20370609
000120 1d 77 58 bd c2 f4 75 3e ef e6 80 3c 24 7b 16 bd
       -0.05284797 0.24019149 0.015735118 -0.03673853
000130 02 dc 74 bf 57 aa de 3e a8 e6 7d bc d1 38 67 3d
       -0.95648205 0.43489334 -0.015496887 0.05645067
000140 ec 87 c3 3d b6 bc a1 bd 33 f7 f2 3c b0 eb 64 3d
       0.095474094 -0.07897322 0.02965889 0.05588883
000150 4e 18 8d 3d 2d d6 ee 3e ca 4f 11 bd c0 ce 90 bc
       0.068894014 0.46647778 -0.035476483 -0.017676711
000160 0b 30 14 3e f6 fe c0 be 05 0f 5a bb 0c 30 b9 3b
       0.14471452 -0.3769452 -0.0033273112 0.0056514796
000170 e5 12 26 3f 3a e3 f2 be 0a c4 a1 3b bd 8a 8f bc
       0.6487258 -0.47438985 0.0049366998 -0.01752221
000180 e1 14 84 3e 46 ad 16 bf e6 da 1f 3c bb 77 27 3d
       0.2579718 -0.58858144 0.009756779 0.04088567
000190 27 31 b6 3e e1 be 34 be 8d 40 de bc 5f 68 75 3d
       0.35584375 -0.1765094 -0.02713039 0.05991399
0001a0 ca cd fa bc 31 24 cb be 76 2f 78 be 12 11 27 3e
       -0.030615706 -0.3967605 -0.24236855 0.16315106
0001b0 8a 32 8e 3d d3 28 87 be 1e 2a 7f be 12 f0 95 3e
       0.06943233 -0.26398334 -0.2491841 0.29284722
0001c0 27 15 04 bf 01 c0 9b be 40 4f 85 bc 36 68 56 3f
       -0.51594776 -0.30419925 -0.01627314 0.83752763
0001d0 77 df 15 3e 38 a5 43 bf f1 2c 9d 3d e8 5e 54 3f
       0.14636026 -0.7642398 0.076745875 0.82957315
0001e0 99 9e f2 be a0 08 aa 3a eb 27 d6 3d 6a 16 28 be
       -0.47386625 0.0012972541 0.104568325 -0.164148
0001f0 0c 66 9a 3e fc a8 27 3f 94 3c 4a 3e f3 c0 21 be
       0.3015598 0.65492225 0.19749671 -0.1579626
000200 ca 46 cc bd 99 a1 01 3e a9 be b2 be c5 13 d2 3d
       -0.099744394 0.12659301 -0.34911087 0.10257677
000210 10 ee 68 bc eb 6a 56 3f 7e 5f 9c be 5c 78 fe 3d
       -0.014216915 0.83756894 -0.30541605 0.124253005
000220 b1 15 88 be a1 04 0b bc be 7f 0e 3d 8e 30 c2 bd
       -0.2657905 -0.00848499 0.034789793 -0.09481917
000230 0e 21 e2 be a5 21 01 3f 2d df 95 3d 97 0f 92 bd
       -0.44165844 0.5044196 0.07317958 -0.0713188
000240 96 15 51 be 54 49 6e be 19 25 9f 3c e4 87 f6 bd
       -0.2041839 -0.2327016 0.01942687 -0.12037638
000250 b4 92 3a be ef ee af be 1f c6 db 3c 3d ec 07 bb
       -0.18220025 -0.3436198 0.02682787 -0.0020740174
000260 29 fd 91 be 50 57 93 3c 37 eb e6 3c 01 f0 04 be
       -0.28513458 0.01798597 0.028188331 -0.12982179
000270 bd 47 22 3d 2a e5 f9 be 1d 7e 22 3e cf 92 ea bc
       0.039619196 -0.4880765 0.15868421 -0.028634457
000280 7c d1 94 bd fc f2 f1 3d 06 a5 48 bd fb f7 2a be
       -0.072665185 0.11813924 -0.048985504 -0.1669616
000290 ce 52 a6 3e b3 6c d3 3f 7c 7c 12 bc 81 6a c7 bd
       0.3248505 1.6517547 -0.008940812 -0.09737111
0002a0 f7 ad 25 3d 66 5f 4e 3f 81 09 0b 3c 56 49 d8 be
       0.04044911 0.80614316 0.008486153 -0.4224345
0002b0 9b 0f ee 3d 30 37 f1 be 0b 85 a7 bd 75 04 b2 be
       0.1162407 -0.47112417 -0.08179673 -0.34769025
0002c0 e0 46 0e 3e ce d7 02 3f a7 17 90 3d 60 8d 89 be
       0.13894224 0.5111054 0.07035761 -0.26865673
0002d0 f7 39 9a 3d e9 30 0c 3f a9 ad 84 3d b1 07 8d be
       0.07530587 0.5476213 0.064784355 -0.2754493
0002e0 71 33 18 3e 09 0c 01 3f a8 8f 1f 3c 71 87 aa 3d
       0.14863373 0.5040899 0.00973884 0.08326615
0002f0 85 08 29 be 9c 11 d1 3f 4f 6e cc 3d a9 5a 07 3e
       -0.16507156 1.6333499 0.09981977 0.13218178
000300 6d a6 eb bd f0 5f 2a bf 61 67 af 3e 9c ef dc be
       -0.115063526 -0.6655264 0.3425856 -0.43151557
000310 b1 81 00 3f 20 bb 17 3f ac 7b a8 3e ec 62 e1 be
       0.50197893 0.59269905 0.32906854 -0.44020784
000320 85 6f f4 3d f1 d7 09 bf fc 14 9b 3d 4d f3 7c bd
       0.11935333 -0.53845125 0.07572362 -0.061755467
000330 13 7a 4b 3e 01 62 1c 3e 36 8b 4a bd c9 ea ac bc
       0.19870786 0.1527176 -0.04944917 -0.021108048
000340 60 36 ab 3e f7 9a 83 be 94 21 13 be 06 2e cd 3d
       0.33439922 -0.25704166 -0.14368278 0.10018544
000350 74 55 17 3f ff 40 ec be 1c 35 47 bd 01 b7 c7 3d
       0.59114766 -0.46143338 -0.048634633 0.09751702
000360 bc 58 1b 3e f6 3b b7 3d fe 92 4a be df a4 6e be
       0.15170568 0.089469835 -0.19782636 -0.23305081
000370 68 b0 90 be 00 e5 04 bf 5f 92 fc bd 75 81 78 be
       -0.28259587 -0.51911926 -0.123326056 -0.24268134
000380 aa bd 91 3e 67 da 25 3e 02 a0 dd 3d c5 f4 3c bf
       0.28465015 0.16196595 0.10821535 -0.7381099
000390 b1 5b 46 be 59 86 29 bf 6c af a0 3d d4 e8 3f bf
       -0.19370915 -0.66220623 0.07845959 -0.7496464
0003a0 6b bc 4d 3e 10 b1 02 3e 02 28 99 bd c3 22 b5 bc
       0.20091407 0.12762856 -0.07478334 -0.022111302
0003b0 92 f4 61 bb 72 47 60 bf 07 71 3b be f3 1c 4a 3d
       -0.003447805 -0.87609017 -0.18304835 0.049344014
0003c0 31 6e 4e 3e 31 50 89 bf 30 51 16 be ba 77 18 be
       0.20159222 -1.0727597 -0.14679408 -0.14889422
0003d0 b0 54 a1 3e 07 e4 98 3e 0f dc 14 be 3b d1 6d be
       0.31509924 0.2986147 -0.1453707 -0.23224346
0003e0 b2 97 cb 3e 59 67 ac bf 1c 9f 47 3d aa e9 d9 3e
       0.39764172 -1.3469039 0.048735723 0.42561084
0003f0 f6 05 fc 3d 33 3c 71 bd 78 21 97 3d 86 75 de 3e
       0.123058245 -0.0588953 0.073794305 0.43449038

fc1.bias f4 [128]
000000 c6 54 52 bd f8 aa 96 3c f0 ce 5f bd 0c a8 4c be
       -0.051350378 0.018392071 -0.05464071 -0.1998598
000010 d2 26 ad bc 7b fb cb 3d d3 11 c3 bc f5 d5 cd bd
       -0.021136675 0.099600755 -0.02381221 -0.10050575
000020 d2 8b d3 3b 02 98 18 3d 07 37 69 bd b7 15 22 be
       0.006455877 0.03725434 -0.056937244 -0.15828596
000030 3a 24 e0 bd 70 4a 08 bd f0 87 96 3d 40 df 39 3e
       -0.1094441 -0.033274114 0.07350147 0.1815157
000040 10 3c 78 3b a1 bb 95 3d e2 65 f0 3d b1 44 b6 bd
       0.0037877597 0.07311178 0.117381826 -0.088998206
000050 47 b3 8a bd b2 a9 0a 3e 55 a3 15 3e 35 1d 46 3d
       -0.06772476 0.13541296 0.14613087 0.048367698
000060 c6 88 21 be 8f 66 ed 3d 51 c8 2c be 6f ac d0 3d
       -0.15774831 0.11591827 -0.1687329 0.10189139
000070 e1 1d c6 3c 88 4c 87 3d 46 bc 4b be 47 f3 92 bd
       0.02418417 0.06606394 -0.1989604 -0.07175308
000080 2f 8b b1 3d 32 e4 20 3e ba 5a 6f bd 9d 37 3a 3e
       0.08669125 0.1571205 -0.058436133 0.18185277
000090 2c 91 3a bd 9c 2f fc bd ac 0f b5 bd 3c 0c 54 3c
       -0.045548603 -0.12313768 -0.0884088 0.01294237
0000a0 74 88 14 bd 4c 59 ca 3d b8 93 e7 bd 03 c8 6d bd
       -0.036262944 0.09880313 -0.11307472 -0.058052074
0000b0 0c 24 4f be 77 9e 2a 3e 1d 57 1d bd 21 c2 24 be
       -0.20228595 0.16662012 -0.038413156 -0.1608968
0000c0 43 5f 21 bc eb f1 c0 b9 ed 3e 68 3d 2d a0 b7 bc
       -0.009849372 -0.00036801337 0.056700636 -0.022415245
0000d0 cd 80 03 3e 29 3b 90 bd 60 45 7a bd ee 7d 46 bd
       0.12842102 -0.07042534 -0.061101317 -0.04845994
0000e0 0b 46 15 3d 5b 6f 27 3e 25 be 19 bc 92 d1 20 3e
       0.03644375 0.16351072 -0.009383713 0.15704945
0000f0 5a 32 24 3e 10 c9 d8 bd 8e b4 8f bc 9c 56 c5 bd
       0.16034833 -0.10585225 -0.01754215 -0.0963566
000100 1c e8 ad 3d d7 fa 92 bd dd 0c 7f 3d 6d fe 47 3c
       0.08491537 -0.0717675 0.062268127 0.012206656
000110 af 38 09 be ad 76 0c be 38 2a 4c be f2 d7 e9 bd
       -0.1340053 -0.13717146 -0.1993798 -0.114181414
000120 11 8b 69 3d 2b 02 4c 3c 49 2d 1d 3e 67 c8 37 be
       0.05701739 0.012451689 0.15349306 -0.17947541
000130 ec dd c1 bb e6 69 3b be 3a 22 9e 3a 50 46 98 3d
       -0.0059163477 -0.18302116 0.0012064644 0.07435286
000140 c5 85 3b be 4a 9c 38 3e ec d5 81 bd e3 35 39 3e
       -0.18312748 0.1802837 -0.063396305 0.18086962
000150 05 2a 0c bd 55 22 ed 3d 11 11 3e 3e f0 25 98 bd
       -0.03421976 0.11578814 0.18561198 -0.07429111
000160 1c 51 4b bd ad 3a db 3d 8e f2 32 be 58 86 f7 3d
       -0.0496379 0.10704551 -0.1747534 0.12086171
000170 3f 50 03 be 9b 22 42 3e 1c f4 08 be ca 13 ac bd
       -0.1282358 0.18958513 -0.1337437 -0.08402212
000180 de f6 1b 3e de 06 b6 bd 97 2a 33 3e 09 ce 0f 3e
       0.15230891 -0.088880286 0.17496715 0.1404344
000190 1b 0e 3f 3e fc 90 4a be 2b d6 1b 3b 6a 50 89 bd
       0.18657725 -0.1978187 0.0023778777 -0.06704791
0001a0 91 2b 47 3d aa bb 1d be 42 5f ab 3d 80 a3 1e bc
       0.048625533 -0.1540362 0.08367778 -0.009682536
0001b0 93 99 c5 bd 5a d8 3b be 1e ab da 3d 5e 32 97 bd
       -0.096484326 -0.1834425 0.10677169 -0.07382654
0001c0 fc 40 1a 3e 9a c9 14 3d ca 55 7e 3d 72 87 fd bc
       0.15063852 0.036325075 0.062093534 -0.030948374
0001d0 31 d0 e7 bc ba a4 8d bd 07 fd 34 be da 6b 03 3e
       -0.028297516 -0.06916185 -0.17674647 0.12834111
0001e0 c3 9c 03 be eb 49 f4 3d 11 fd 8c bd 1e f3 02 3e
       -0.12852769 0.11928161 -0.06884206 0.12788054
0001f0 aa 26 33 3e 3a a8 ff bd 79 98 2c 3e a8 b1 af 3b
       0.17495218 -0.124832585 0.16855039 0.0053617544

bn.weight f4 [128]
000000 2a d3 0a 3f 6f 3c 41 3f a4 c5 39 3f ea 5d 40 3f
       0.5422846 0.7548284 0.725672 0.751433
000010 5d 1e 30 3f 9b 9f aa 3e dd 19 47 3f 8c c9 1d 3f
       0.6879633 0.33324894 0.7777384 0.6163566
000020 a2 41 3b 3f a0 1d 1d 3f 26 0b 3d 3f 55 68 0c 3f
       0.7314702 0.6137333 0.73845136 0.548467
000030 f8 57 2c 3f 71 79 fa 3e bf af 74 3f 95 6e 3e 3f
       0.6732173 0.48920777 0.9558067 0.74387485
000040 50 74 ce 3e dd fc 22 3f df c8 cb 3f ea 8b 33 3f
       0.40323114 0.6366709 1.5920676 0.70135367
000050 08 e0 4b 3f 53 83 02 3f 51 2b 6b 3f 97 c4 12 3f
       0.7963872 0.50981635 0.9186297 0.5733122
000060 1b 0f 1b 3f cc af 5a 3f 73 07 24 3f 79 97 80 3f
       0.60569924 0.85424495 0.64073867 1.0046226
000070 6f 9e 3e 3f 10 80 15 3f bc 5f 2c 3f 82 0e b0 3e
       0.744605 0.5839853 0.6733358 0.3438607
000080 24 b2 25 3f b6 ef 34 3f 33 df d9 3e f5 cb cb 3f
       0.64724946 0.7067827 0.425531 1.5921618
000090 5a fc 12 3f 9c 02 60 3f 99 6c 0e 3f 6c 5d b9 3f
       0.5741631 0.8750398 0.55634457 1.4481635
0000a0 ec 80 57 3f 39 5b 0f 3f bf 67 9e 3f c8 54 4d 3f
       0.84181094 0.5599857 1.2375411 0.8020749
0000b0 4d aa 19 3f d5 78 0c 3f 97 d1 07 3f 4b 06 0d 3f
       0.60025483 0.54871875 0.53054184 0.5508773
0000c0 30 d5 d3 3e 2c 65 c7 3e 00 66 75 3f b3 0b 15 3f
       0.41373587 0.38944376 0.95858765 0.58220977
0000d0 48 69 f1 3e fb c7 95 3f b7 47 ed 3e ef 3a 0a 3f
       0.47150636 1.1701654 0.46343777 0.53996176
0000e0 f3 93 2c 3f 8a fd 40 3f 87 83 35 3f 34 48 d6 3e
       0.6741325 0.7538687 0.7090382 0.41851962
0000f0 4f 30 c3 3e 21 7d bf 3f 7d cb 38 3f d6 a4 28 3f
       0.38122794 1.4960061 0.721855 0.6587652
000100 00 e0 d7 3e f8 bc 1b 3f e0 76 f7 3e 58 88 0a 3f
       0.42163086 0.6083522 0.48332882 0.54114294
000110 d9 0f 11 3f fa 1e ab 3f a7 67 1a 3f f9 9c 05 3f
       0.56664807 1.3368828 0.6031441 0.52192646
000120 47 fe 42 3f b2 19 30 3f 0e 41 3e 3f ba dc f9 3e
       0.76169246 0.6878921 0.74318016 0.48801214
000130 f9 34 13 40 be 4a 05 3f cb 82 20 3f c3 a4 42 3f
       2.3001082 0.5206717 0.62699574 0.76032656
000140 45 8c 5e 3f ee 15 13 3f b3 35 b4 3e 8f 64 20 3f
       0.86932784 0.5745534 0.3519722 0.6265344
000150 fe f5 48 3f ed 10 06 3f 3c 8e fc 3e 50 84 4d 3f
       0.78500354 0.52369577 0.49327266 0.8028002
000160 71 64 12 3f 7a 2a 0f 3f 57 da 1e 3f e3 33 2f 3f
       0.5718451 0.5592419 0.6205191 0.6843855
000170 40 48 d1 3e 10 67 7f 3f 72 2d ff 3e a9 3b 08 3f
       0.40875435 0.99766636 0.4983936 0.53216034
000180 75 67 2a 3f bb 2d 22 3f d9 27 28 3f 1c 35 15 3f
       0.6656411 0.6335103 0.656858 0.58284163
000190 e3 fb 8a 3f ee b7 fc 3e 7b 91 bd 3f 25 3a 69 3f
       1.085812 0.49359077 1.4810022 0.91104347
0001a0 79 3f d4 3e 8f 98 6d 3f cb 51 38 3f 36 d6 1e 3f
       0.41454676 0.9281091 0.71999806 0.6204561
0001b0 e4 e8 00 3f 18 8a 31 3f ee eb 3b 3f e8 88 54 3f
       0.5035536 0.6935134 0.73406875 0.830214
0001c0 37 05 80 3f 6b e3 c7 3e 0c f8 ed 3e 07 c5 10 3f
       1.0001591 0.39040694 0.46478307 0.5655064
0001d0 3d ae 1d 3f b6 6b 2f 3f 36 93 18 3f 37 ea 25 3f
       0.6159399 0.6852373 0.59599626 0.6481051
0001e0 e7 c3 5b 3f ee f2 90 3f 9e 9b 88 3f a3 8c 05 3f
       0.858458 1.1324136 1.0672491 0.5216772
0001f0 91 d5 17 3f 37 cf 12 3f b4 8c 15 3f a5 52 88 3f
       0.5931025 0.57347435 0.5841782 1.0650221

bn.bias f4 [128]
000000 cd 1e c6 bd 88 4b 2e be b0 ab 1d bf bc e7 3e be
       -0.096738435 -0.17021 -0.615901 -0.18643087
000010 32 da 0d bf 6d c1 9a 3d c9 e4 4b 3d f1 41 30 be
       -0.55411065 0.07556424 0.049778733 -0.17212655
000020 63 d9 14 bf aa 05 1f bf 1d cd f1 be 41 3d 4b be
       -0.58144206 -0.6211802 -0.47226802 -0.19847585
000030 18 2a 80 be 8a 9b e6 bd ee 0d 51 bf af a3 3a 3e
       -0.25032115 -0.112601355 -0.8166188 0.18226503
000040 18 a0 aa bd 53 c9 4c bf f2 a1 8f bf e0 97 80 be
       -0.08331317 -0.79994696 -1.1221297 -0.2511587
000050 76 97 52 bf 5d b9 93 be db 97 39 bf 9b 9a fa be
       -0.8226236 -0.28852358 -0.7249734 -0.4894608
000060 86 dc 66 be b5 c2 83 bf 0d 41 d4 3e 53 83 8e 3d
       -0.2254506 -1.0293795 0.4145588 0.06958642
000070 d3 21 a1 3d 02 a5 04 3e 03 97 86 bf ca 1c 44 bd
       0.078677796 0.1295357 -1.0514835 -0.047879018
000080 97 0d cb be 03 dc 15 bf 1d 18 67 be af 91 3e bf
       -0.39658806 -0.58538836 -0.22567792 -0.74441046
000090 08 2a be 3d 51 0d 49 bd 9e cf 0d be b8 ea dc be
       0.092853606 -0.049084965 -0.13848731 -0.43147826
0000a0 a2 f7 4b bf d1 07 01 bf d0 da ec 3b c5 61 0c be
       -0.7967473 -0.5040255 0.007228233 -0.13709171
0000b0 db 1c 55 be ee c1 5d be 30 71 71 be b7 98 0c 3e
       -0.20811789 -0.2165601 -0.23578334 0.13730131
0000c0 81 ce 8a bd 95 6f 99 bc 27 60 e3 be f7 15 0a be
       -0.06777669 -0.018729964 -0.44409296 -0.13484941
0000d0 01 5b 15 bf 49 63 bd be b8 2b c0 be 5a e8 95 be
       -0.58341986 -0.3698981 -0.37533355 -0.29278833
0000e0 3b 83 eb be 61 24 9a 3e 62 e5 37 bf ce 0f 40 be
       -0.45998558 0.3010588 -0.71834385 -0.18756029
0000f0 ee fa 68 be 46 aa 85 be 40 6d 50 be 95 81 1b 3e
       -0.22751972 -0.2610647 -0.20354176 0.1518615
000100 6f ee 85 be 27 05 9b be 9b 46 1c be 3f bf 7f be
       -0.26158473 -0.30277368 -0.15261309 -0.24975298
000110 49 ea 08 be 92 4b a0 bf f3 a1 ef be b8 7b 62 be
       -0.13370623 -1.2523062 -0.46803245 -0.22117507
000120 cf bf 83 bd 0d d9 3a bf af 6d 1b bf c1 c0 cf be
       -0.06433069 -0.72987443 -0.6071424 -0.40576747
000130 2b 4b 24 bd f3 84 1f be 37 31 76 be 86 37 9b be
       -0.04011075 -0.1557806 -0.24042211 -0.303158
000140 a6 ee d8 be 2a 0b 13 bf 9d c4 76 bc e2 ab 14 bf
       -0.42369574 -0.5743891 -0.015061525 -0.5807477
000150 5f d2 a5 be 2e c1 a1 bd 0f fa 3e be 4f 59 23 3f
       -0.32387063 -0.07898174 -0.18650077 0.6380815
000160 5e 13 2a bf af 6d a4 be fa 5b 1e bf c8 72 e0 3e
       -0.664358 -0.32114932 -0.61859095 0.4383757
000170 60 e4 83 be 15 cf 1e bf b3 62 01 3e 18 82 82 be
       -0.25760174 -0.6203473 0.12635307 -0.2548988
000180 ed 02 99 bd bb 88 1d bf af 5d 64 bf 15 66 57 be
       -0.07471261 -0.6153676 -0.8920545 -0.21035035
000190 dc 59 5c bf 8e c6 b2 be 6f 12 fc 3c ec c4 1f bf
       -0.86074615 -0.3491711 0.030770509 -0.62409854
0001a0 3f e3 07 be ba 3f 97 bf 10 0a 30 3e dd da c2 bd
       -0.13270281 -1.1816323 0.17191339 -0.09514401
0001b0 94 6a 80 be 84 f3 9f bf d8 10 fe be 37 c3 1f bf
       -0.25081313 -1.249619 -0.49622226 -0.6240725
0001c0 69 e7 60 bf 92 ec 89 be f0 15 8c 3e 46 56 2a bf
       -0.87853104 -0.269383 0.27360487 -0.6653789
0001d0 f1 fa df be 47 1f c5 bd 24 cb f2 be 64 a7 49 bf
       -0.4374614 -0.09625106 -0.4742061 -0.7877104
0001e0 49 16 9d be 01 05 f5 be a5 09 45 be cf 61 5b 3d
       -0.30681065 -0.4785538 -0.1924196 0.053560074
0001f0 ac 5a 3b bf 14 93 f2 be 73 54 0a bf 2c 33 0c 3e
       -0.7318523 -0.47377837 -0.5403511 0.13691396

bn.running_mean f4 [128]
000000 2a af 3f 41 95 d5 79 40 4d c0 51 40 f0 a5 e7 be
       11.980265 3.903661 3.277362 -0.45243788
000010 9e f4 32 be 59 06 4a 41 d6 96 ef 40 93 32 70 3e
       -0.17476127 12.62655 7.4871626 0.23456793
000020 4d 9a 18 3e be 7c 41 c1 46 28 c4 c0 64 5c 12 40
       0.14902611 -12.092955 -6.129916 2.286889
000030 2c 59 e4 c0 b7 c1 4d c0 d4 24 58 40 64 29 25 41
       -7.1358852 -3.2149484 3.3772478 10.322605
000040 4b d9 b8 3f 23 19 88 c0 9c 8c d8 40 31 0d b6 41
       1.4441313 -4.2530684 6.767164 22.756441
000050 d2 9c 3e bf 08 0a 88 40 e4 11 ae 3f fd 7e 82 3f
       -0.7445804 4.2512245 1.359921 1.0195004
000060 dd be 21 40 15 49 f6 c0 46 4d 03 40 fa 60 14 be
       2.5272744 -7.696421 2.0515914 -0.14490119
000070 7c 1c 7b 40 64 6a 5b be 94 92 3b c1 de 8b 2b 3f
       3.9236135 -0.21427304 -11.723286 0.67010295
000080 80 86 7e 40 ad 84 87 40 3a f6 c4 3f 69 ac 49 3f
       3.9769592 4.234946 1.5387642 0.787787
000090 09 88 04 41 ff dc 46 41 4d 85 42 41 3e 4c 73 3e
       8.283212 12.428954 12.157544 0.23759553
0000a0 06 98 6e c1 eb b9 c3 c0 d8 ff f3 bf c2 7a ff 40
       -14.912115 -6.116445 -1.9062452 7.983735
0000b0 10 b5 15 41 84 ba b6 c0 7d d1 ff 40 49 56 31 41
       9.356705 -5.710268 7.9943223 11.083566
0000c0 ff 6e b9 c0 b5 44 c1 c0 2c 34 b2 40 c6 f0 c8 c0
       -5.7947993 -6.039637 5.5688686 -6.2793913
0000d0 00 93 99 c1 2b a4 b6 3e fd 22 fe c0 88 18 68 c0
       -19.196777 0.35672125 -7.941771 -3.6264973
0000e0 2e b9 ba c0 79 0f 44 41 17 70 71 c0 43 48 00 c1
       -5.835105 12.2537775 -3.7724664 -8.017642
0000f0 31 b4 50 c0 1d 9b 03 3d fa 89 4b 41 78 5f dd 40
       -3.260998 0.03213035 12.721186 6.917904
000100 a0 46 65 c0 82 82 c5 40 eb d0 d9 bf 8d 60 f8 40
       -3.5824356 6.172181 -1.7016882 7.761786
000110 b2 99 c5 40 29 23 e5 bf 43 a9 7c 40 72 27 87 40
       6.1750116 -1.7901355 3.947831 4.223565
000120 d6 0b 8d 41 2f 1e 61 bf eb 7e 97 40 2b 4c 26 c1
       17.63078 -0.8793668 4.734243 -10.393596
000130 22 62 10 3f 05 2e 9b be b9 4f 29 bf 75 79 db bf
       0.5639974 -0.30308548 -0.6613727 -1.7146441
000140 73 e4 dd 40 4b dd 6f c1 19 1b 68 40 27 75 0f c1
       6.934137 -14.991527 3.626654 -8.966102
000150 fd c3 ce 3d e3 de 93 41 70 05 82 c1 5b 59 b0 40
       0.100959755 18.483831 -16.252655 5.5109076
000160 7f 0b da c0 7b 64 50 3f 41 42 6c c1 2b 1b ce 3e
       -6.8139033 0.8140332 -14.766175 0.40255103
000170 24 3c 12 be 8b cb bd 40 1c 26 e3 40 11 4b 6c 41
       -0.14280754 5.9310966 7.098402 14.768327
000180 bb 07 b4 40 ce d4 15 c1 ed 09 71 c1 05 60 b3 c0
       5.6259437 -9.364454 -15.064923 -5.605471
000190 8a 18 97 40 ff f1 ba bf 9f b8 3d 3f 7a 3d 6d 40
       4.7217455 -1.4605101 0.74109834 3.7068772
0001a0 5f 7e c0 40 6c dd 1a c1 ca c6 47 40 23 8e 3d 41
       6.015426 -9.679058 3.1215081 11.847201
0001b0 a9 3b 15 c1 7a 27 50 c1 fc 36 50 40 cb f6 87 bf
       -9.327065 -13.009638 3.253356 -1.062219
0001c0 43 d5 cb c0 e3 51 02 c0 fa 77 3f 41 bd ab a9 3e
       -6.369783 -2.036248 11.966791 0.33138838
0001d0 cd 7f 9d c1 bb 1c 28 40 ca 34 75 c1 58 f3 89 c1
       -19.687403 2.6267536 -15.325388 -17.24382
0001e0 66 91 28 c0 9d d6 16 bf 67 5f 27 40 b6 79 d5 40
       -2.6338744 -0.58921224 2.615198 6.6711073
0001f0 7e 6a 82 c1 55 e0 b9 3f 63 f2 1e 40 c5 cf 1e 3d
       -16.301998 1.4521586 2.483544 0.038772363

bn.running_var f4 [128]
000000 34 03 89 42 73 d8 3c 42 7e 18 9d 42 c2 f0 90 40
       68.506256 47.211376 78.54784 4.5293894
000010 87 1b e9 42 33 32 01 43 a1 d9 5f 41 06 75 e9 41
       116.553764 129.19609 13.990632 29.18214
000020 9e 94 3a 43 30 04 ad 42 bd f7 ad 42 66 ff 1a 43
       186.58054 86.50818 86.983864 154.99765
000030 59 af 85 42 27 f9 22 43 bd 55 37 41 4b 9e 54 42
       66.842476 162.97325 11.458432 53.154583
000040 82 7c f4 42 5a 12 73 41 73 f1 bf 42 fd d5 92 42
       122.24318 15.19198 95.97158 73.417946
000050 d7 73 2b 42 b9 d3 86 41 c9 3f f3 41 3b 54 41 42
       42.863125 16.85338 30.406145 48.332256
000060 59 b6 54 41 a3 3f 66 42 13 ef cb 3f 01 4a a2 40
       13.294518 57.562145 1.5932335 5.0715337
000070 34 c2 5f 42 5f e4 73 40 a4 f3 fa 41 5d dd 30 43
       55.93965 3.8108137 31.368965 176.8647
000080 39 c0 1a 43 4e 19 4e 42 d9 e5 2f 42 ef 3c 5d 40
       154.75087 51.52471 43.97446 3.456844
000090 a0 9f 8e 42 79 d5 4b 42 34 36 bd 42 ae 00 0f 40
       71.31177 50.95847 94.605865 2.2344165
0000a0 e2 1b c6 42 4d 02 3e 42 d3 7b e5 40 07 a2 ee 41
       99.05446 47.502247 7.1713653 29.829115
0000b0 6c f5 5d 42 e3 71 d6 42 63 e9 b7 42 ed 37 38 42
       55.48967 107.222435 91.95583 46.054615
0000c0 fc 69 db 42 fd 95 2c 42 51 da aa 42 ca 7f 33 42
       109.707 43.146473 85.4264 44.874794
0000d0 7b 8f be 42 b7 e2 06 41 cc 03 b8 42 05 61 2d 42
       95.280235 8.43035 92.007416 43.344746
0000e0 de 7a 01 42 dd 1b 03 42 ac b7 a3 42 ca 75 25 42
       32.369987 32.77721 81.858734 41.36503
0000f0 4b 39 66 43 4d 52 04 40 33 e2 30 42 d3 34 50 41
       230.2238 2.0675232 44.220898 13.012897
000100 72 44 aa 42 8c bd 94 42 45 de 13 43 d8 b6 4d 42
       85.13368 74.37021 147.86824 51.42856
000110 2b 24 35 42 1b 48 f9 40 10 c7 e0 42 07 06 a9 42
       45.28532 7.790052 112.388794 84.51177
000120 a5 ee b4 42 3d 0d 87 42 d3 44 83 42 33 01 4b 43
       90.4661 67.525856 65.63442 203.00468
000130 d0 53 65 44 ed 8d 80 42 4a 63 00 43 5e 7b 6f 41
       917.3096 64.2772 128.38785 14.967619
000140 2e a0 58 42 9f 5f 66 42 ae 7a f1 42 3f 8c 12 42
       54.156425 57.59338 120.73961 36.63696
000150 ca b2 c2 40 36 46 e3 42 b2 b1 2d 42 da 84 9a 40
       6.084325 113.63713 43.42353 4.828717
000160 50 ca be 42 e8 b3 34 41 73 4d ae 42 97 ee 2b 40
       95.39514 11.293922 87.15127 2.6864374
000170 7c 87 fa 41 6d 08 18 42 fb b9 21 41 ed 19 ce 42
       31.316154 38.00823 10.107905 103.05064
000180 74 c2 3e 42 fb 0a b1 42 73 c8 ad 42 41 9e 20 43
       47.689896 88.52145 86.8915 160.61818
000190 04 45 8c 42 03 94 49 40 15 57 b3 40 50 5d c3 41
       70.134796 3.149659 5.60438 24.420563
0001a0 e7 f7 76 43 b2 c3 04 42 55 a5 ac 40 8a eb a3 42
       246.96837 33.19111 5.395182 81.96004
0001b0 7e 30 a6 42 3a aa 75 41 96 4a 2f 42 06 59 da 40
       83.09471 15.354059 43.822838 6.823367
0001c0 a3 be a2 42 90 99 03 43 64 dc 10 42 41 f4 00 43
       81.37234 131.59985 36.215225 128.95412
0001d0 7f bf 8d 42 02 7d 30 41 ab a8 9e 42 78 e1 8f 42
       70.874016 11.0305195 79.32943 71.94037
0001e0 bf cb 32 41 6f cf 0f 41 9b 77 09 42 e4 ad b9 42
       11.174743 8.988143 34.366802 92.83963
0001f0 24 6b 44 42 2e b0 68 42 ab 7e 33 43 6f 04 94 3f
       49.10463 58.17205 179.4948 1.1563853

fc2.weight f4 [128, 130]
000000 3d 31 fe be a6 bc 53 3c 3e 29 4d be 1b b8 4b be
       -0.4964694 0.012923395 -0.20035264 -0.1989445
000010 15 50 70 be 3f 9f b3 be 15 81 81 bf b8 88 9c be
       -0.23468049 -0.35082433 -1.0117518 -0.30573058
000020 22 37 af 3d 21 7d 08 c0 4f 23 de bf 1c b7 b6 be
       0.085554376 -2.1326373 -1.7354525 -0.35686576
000030 43 01 23 be f8 2b 90 3d 7d dc 2c be 95 f6 d7 bd
       -0.1591845 0.070396364 -0.16880985 -0.10545079
000040 ad 44 86 3e 49 25 aa bd 44 7d a8 bf f5 82 8c 3b
       0.2622427 -0.08307893 -1.3163228 0.004288072
000050 5f fb fa be ac fd c7 be 62 73 87 be 6c ac 4e bf
       -0.49019906 -0.39060724 -0.26455218 -0.80731845
000060 60 a6 55 be c5 c1 4f bf 96 48 91 bd 92 7e 84 3e
       -0.20864248 -0.81155044 -0.07093923 0.25877815
000070 ce 3c 50 be 3a db 55 3e 5e 96 86 bf fb a4 8b be
       -0.20335695 0.2088441 -1.0514638 -0.27274308
000080 6e af e7 bf de 2b 18 be ff 09 bf 3d f4 cb 40 bf
       -1.8100412 -0.14860484 0.093280785 -0.7531121
000090 eb 3a 67 be 4a d0 b9 3c 9e c3 69 3f 0a d2 81 bd
       -0.22581069 0.022682328 0.91314113 -0.0633889
0000a0 f8 45 c4 3c 5a 82 b4 bd d9 5e b3 be d7 4f d2 3c
       0.023959145 -0.08813925 -0.350333 0.025672836
0000b0 fb 1b 92 be 72 ee c5 bf b4 37 75 3e 77 bc ae bf
       -0.28536972 -1.5463393 0.2394703 -1.3651265
0000c0 b9 ac 04 3f 4c 0c 4d 3e 06 0c be be 7e b6 9f be
       0.51826054 0.20024222 -0.37118548 -0.31193918
0000d0 d8 ba 67 3e 0b f5 02 be 06 8c 0d 3f 86 2b 56 3e
       0.22629869 -0.12788789 0.55291784 0.2091504
0000e0 4c 3b 98 bc 60 b6 08 3e a6 45 bd bf 52 ad 1f 3e
       -0.018582962 0.1335082 -1.478688 0.1559346
0000f0 a8 4a 44 bf 39 e2 22 bf 30 4f c8 bf 1a 39 9b be
       -0.76676416 -0.6362644 -1.5649166 -0.30317003
000100 ee b9 af bd 09 01 d5 3d e6 79 f3 3d 54 21 d3 3e
       -0.08580385 0.10400588 0.11888485 0.41236365
000110 80 a4 37 be e1 01 63 bf 0f 40 8d 3e dc 63 70 bc
       -0.17933846 -0.8867474 0.27587935 -0.014672246
000120 26 ad 56 bc da 13 d6 3e ad cd 2d 3c bf 35 4e bf
       -0.013102805 0.4181202 0.010608119 -0.8055076
000130 fc f0 1b 3e d4 ca 1c bf f2 7d a2 3e a7 70 80 bd
       0.15228647 -0.6124699 0.31736714 -0.06271487
000140 e1 6c 98 be 7f bc dc be 73 a7 08 3d aa 88 16 be
       -0.29770568 -0.4311256 0.033362817 -0.1470057
000150 87 66 a0 bc 02 13 0d c0 ae 63 0e bb 03 9e f6 be
       -0.019580139 -2.2042851 -0.0021726894 -0.48167428
000160 db 9f b5 bf a7 7a df 3e f0 5b fd 3e 2b 01 31 bb
       -1.4189409 0.43648264 0.49484205 -0.0027008753
000170 6f 50 cc be 8d bf 6d 3e 0c 13 52 be 3b e9 eb bc
       -0.39905116 0.23217602 -0.20515078 -0.028797736
000180 9f eb 00 bf 0e bf 30 3d f4 14 4e 3d 4d c0 ec 3d
       -0.5035953 0.043150954 0.05031295 0.11560116
000190 de df 0a bf e5 6c b0 be 7b 2e 9e be d1 95 c3 be
       -0.54247844 -0.3445808 -0.30894837 -0.38200238
0001a0 11 02 2f 3c 55 af bb 3e 5d 3b 06 be 3f 8b 71 be
       0.010681645 0.36657205 -0.13108583 -0.23588274
0001b0 66 d5 24 3e 19 29 5c be d3 43 2a be f4 8f 37 3e
       0.1609703 -0.21500053 -0.16627435 0.17926008
0001c0 78 c8 1e bf 3e e1 90 be f5 6c 82 3f 5f 65 48 be
       -0.6202464 -0.28296846 1.0189501 -0.1956992
0001d0 5a 6c 86 3d cd f5 13 3e 33 e8 06 3d d4 33 0e bf
       0.06563635 0.14449234 0.032936286 -0.55547833
0001e0 a6 60 88 3e 72 f6 37 be 3c 23 53 bf c3 dc 33 bf
       0.26636237 -0.17965105 -0.8247564 -0.7025873
0001f0 7f ce 8a 3e af f0 d2 3e ee 5a a8 bf cc 63 8c be
       0.2711067 0.41199252 -1.315275 -0.2741989
000200 9b 3e 51 bd ad df f8 3d 1b b9 b2 bc ff 3b 5f 3d
       -0.051085096 0.12152038 -0.02181678 0.054500576
000210 bc c8 21 3c 07 c2 2f bd e2 2e a7 bd 3a ed 3a 3d
       0.009874519 -0.04290965 -0.08163239 0.045636393
000220 9b 77 30 bd 14 35 63 bd 96 4a 1a be 5b 3c a6 3c
       -0.043082815 -0.05547054 -0.15067515 0.020292452
000230 c8 b7 d6 3c b9 b4 2f 3d e5 d5 85 3d 2f 63 ad bd
       0.02621068 0.04289696 0.06534938 -0.084661834
000240 1b 84 17 be 29 16 65 bd a8 97 09 3c 07 16 ca bd
       -0.14796488 -0.055929337 0.008397974 -0.09867483
000250 8f c6 89 bd 52 72 61 bd 35 0f 1a bd f7 e6 67 3c
       -0.06727325 -0.055040665 -0.03761216 0.014154187
000260 4c b7 83 3c 5a f3 9a 3c 4f 3a 8a bd 3a 08 84 bd
       0.016078614 0.018914867 -0.06749403 -0.064468816
000270 53 29 8f 3c c9 89 8c bc 9d c5 e6 bd 18 9b 0c bd
       0.01747576 -0.017155545 -0.112681605 -0.034327596
000280 ab 45 d7 bd e4 cc 7a 3d 6a 9e 20 be df 52 ee bd
       -0.10511335 0.061230555 -0.1568543 -0.116369
000290 1c c4 0c bd 04 ac da bd 6d 7c d3 bd 2c 0e 66 bd
       -0.034366712 -0.106773406 -0.10326467 -0.05616586
0002a0 95 29 08 3d a8 17 75 bd 85 03 37 bd f7 31 21 bd
       0.03324278 -0.059837013 -0.04468109 -0.03935429
0002b0 85 72 bb bd 9b f8 40 3d c8 a5 53 bd d9 dd 6d bc
       -0.09152702 0.04711209 -0.051671773 -0.014518225
0002c0 ec 27 05 be c0 43 9a 3d 14 40 17 bd eb 86 62 bd
       -0.1300351 0.075324535 -0.036926344 -0.05530445
0002d0 ee 80 5f bd a0 e4 9b bd 96 dc 98 bd ab 06 c8 bd
       -0.054566316 -0.07611966 -0.074639484 -0.09766897
0002e0 88 d3 8e bc 08 7c 32 3d 4e 37 e0 bd c6 41 90 3c
       -0.01743485 0.043575317 -0.109480485 0.017609488
0002f0 1a 6a a6 bd b3 0f 02 3d e7 bc 10 bd 4c 6e 0d be
       -0.08125706 0.031753253 -0.0353364 -0.13811606
000300 1c f3 a9 bd f6 dc 08 bd dc f3 d9 3c 59 e2 e2 3b
       -0.082983226 -0.03341385 0.026605539 0.0069239554
000310 b7 d4 74 bb af 60 e4 bc d7 2b 0f bd 73 99 26 bd
       -0.0037358233 -0.027878134 -0.03495392 -0.040673684
000320 fe 24 bd bd 2d aa f9 3c cf 16 d6 3b 92 cb de bd
       -0.09235571 0.030476654 0.0065334807 -0.10878672
000330 25 90 a8 bc 19 bf b6 bc d9 fd b9 bd 77 43 a7 bd
       -0.020576546 -0.02230792 -0.09081621 -0.08167165
000340 3e ab a5 bc bf 0e 2c bd 95 6d 24 3c 8e 90 22 bd
       -0.020223256 -0.04200625 0.010035892 -0.03968864
000350 26 ba d9 bc a4 c7 c0 bd 4e fd af bd 60 a0 96 bc
       -0.02657802 -0.094130784 -0.08593236 -0.01838702
000360 21 72 b2 bd 6d 98 41 bd 46 26 87 bd 12 eb 83 3c
       -0.087131746 -0.047264505 -0.06599097 0.016103301
000370 56 2c 83 bd 9d 0a 3e 3d d5 99 ff bd b0 52 a9 3c
       -0.06404941 0.04639684 -0.12480513 0.020669311
000380 5d cc bd bd 12 17 24 bd 8a 55 5e be 14 a1 56 bd
       -0.09267495 -0.040061064 -0.21712318 -0.05239971
000390 09 01 5b bd f8 90 13 be bd f1 8b bd 19 ed ab 3d
       -0.053467784 -0.1441077 -0.06833217 0.08394832
0003a0 d9 99 ab bb 1b cb 30 3c 16 c3 ff bd 59 96 81 bd
       -0.005236846 0.010790612 -0.124883816 -0.06327505
0003b0 50 12 4f 3c eb 07 0e bd fc 2c 8e bd 94 f2 10 ba
       0.012638643 -0.03467552 -0.06942174 -0.0005529311
0003c0 74 2f bf bc 61 14 35 3c f4 8d c6 3c 6f 3f c5 bd
       -0.023338057 0.011052222 0.02423761 -0.096312396
0003d0 f9 1a af bd 60 38 05 be 09 c4 89 bc ab f8 bf bd
       -0.085500665 -0.13009787 -0.01681711 -0.093736015
0003e0 0e 08 59 bb 26 39 89 bd 13 e8 b6 bd a5 e5 cd bc
       -0.0033116373 -0.06700353 -0.089309834 -0.025133917
0003f0 94 8a b7 bd cb a1 3f be d0 69 01 be 7a 6c a8 bd
       -0.089619786 -0.18714063 -0.1263802 -0.08223815

fc2.bias f4 [128]
000000 d2 92 b9 bd 56 c4 03 be 2b 9a 3e 3e 39 2e 86 be
       -0.09061207 -0.12867865 0.18613498 -0.2620714
000010 6f 23 28 bd 01 a1 ea 3d 6a 9e 01 3d 6f 61 40 3e
       -0.041049417 0.1145649 0.031645216 0.18787168
000020 69 f5 05 bf 2d 02 4e 3e 1b a1 4e bf 65 44 3a 3e
       -0.5232759 0.20118017 -0.8071458 0.18190153
000030 0e e9 9b 3e 94 f5 d4 3c 74 b9 db 3d 9a ed 3b 3e
       0.30451244 0.025996007 0.10728732 0.18352357
000040 9e 00 bc bc 4c 41 0c 3f ba 6f fa 3c b2 42 30 be
       -0.022949513 0.54787135 0.030570854 -0.17212942
000050 1f 30 99 bd e5 14 3e bc 03 4d 10 be 12 ae 9f bd
       -0.074798815 -0.011601661 -0.14091878 -0.07796873
000060 9e 96 df bd 65 8e cf 3e da 09 4b 3e c4 3b 5d 3d
       -0.109174 0.40538326 0.19827977 0.054012075
000070 a0 50 25 bd 76 6b e9 3d 82 e5 98 bd 34 80 a4 bd
       -0.040360093 0.1139745 -0.0746565 -0.08032265
000080 1d d6 7c bd 50 37 3b 3e 40 fd fb 3d 99 bb 8e bf
       -0.06172763 0.18282819 0.12304163 -1.1151
000090 e8 f5 9e 3c 6c 80 9f 3d 79 dc 80 3b 08 70 e4 be
       0.019404367 0.077881664 0.0039325324 -0.44616723
0000a0 11 66 ca 3d 8b 07 c7 bb a4 5a 50 be 11 4c fd 3d
       0.09882749 -0.0060738972 -0.20347077 0.12368024
0000b0 f3 f6 d0 bc 90 5c 8b be 8d 4d 91 3e 10 77 bf bd
       -0.02550838 -0.27219057 0.2837948 -0.09348881
0000c0 39 45 20 bf ef 79 4b be 3f 38 f6 3c 2e da 7a bc
       -0.62605625 -0.19870733 0.030056117 -0.015310807
0000d0 e0 0d 1c be 95 49 8f be 49 3d 14 bf ee 6f 3e 3f
       -0.15239668 -0.27985826 -0.57906014 0.7438954
0000e0 13 1b 05 be 45 17 aa 3e 6d 1e a7 3e 6c e8 85 3c
       -0.12998609 0.33220878 0.326404 0.016346179
0000f0 c4 ba c6 3e 2a f1 c4 bc 84 58 4c bd a6 e2 6f 3d
       0.38814366 -0.024040777 -0.049889103 0.05856576
000100 8d d2 e6 3d 20 d5 1c 3e 60 8a 90 bd 6b ec d3 bb
       0.11270628 0.15315676 -0.07057643 -0.006467392
000110 ff ec 66 3e 2a de 5b 3e a5 04 df 3e b9 c2 48 3e
       0.22551344 0.21471468 0.4355823 0.19605531
000120 a9 65 ee 3d f0 9a 5d bd 39 27 30 be 79 55 a0 be
       0.11640484 -0.054102838 -0.17202462 -0.3131521
000130 7e 76 5b 3d ab 0f 8a bd 19 47 f1 3d fb d1 ad be
       0.0535798 -0.0674127 0.11781139 -0.33949265
000140 c1 86 76 be 75 f4 e5 be 4c e4 54 3e 4f 86 e0 bd
       -0.24074842 -0.44913068 0.20790213 -0.10963117
000150 99 fc f6 ba 9b 8b 5b 3d 89 32 8f 3e 4c 98 a1 be
       -0.001884359 0.053599935 0.27968243 -0.31561506
000160 cd 95 0d bd 8c 83 ea 3d 9d 7a b9 bd ef a8 ac 3e
       -0.03456669 0.11450872 -0.0905659 0.33722636
000170 07 11 bd 3d a1 b7 f0 3b 46 7c bc 3c 9b 1a 29 bf
       0.09231763 0.007346109 0.023008477 -0.6605622
000180 6c dd 45 bf 29 79 e4 bd aa 39 7f 3e b0 72 0e 3e
       -0.7729099 -0.11155922 0.24924341 0.13910937
000190 90 6b 55 be 96 f0 3e be a0 5f 90 be 94 75 65 3e
       -0.20841813 -0.18646464 -0.28197956 0.22408134
0001a0 3c f5 1d be 64 25 84 3e 24 2f 8b 3c ec 6c 61 3e
       -0.1542558 0.25809777 0.016990252 0.22014207
0001b0 ae 60 1f 3e 64 71 5d 3e e5 a4 b6 3e 24 a7 d2 bd
       0.15564224 0.21625286 0.3567268 -0.10285786
0001c0 30 80 a9 3d 7c e3 3b be a0 e6 18 3d 61 b4 03 3e
       0.08276403 -0.18348497 0.037329316 0.12861778
0001d0 43 48 9a be e2 cf 63 3d 59 6c 80 bd 42 33 9b bd
       -0.30133256 0.055618174 -0.06270666 -0.07578136
0001e0 a6 b3 3c 3e 23 11 91 be f6 5b de bd 6f 23 26 3e
       0.18427905 -0.28333387 -0.10857384 0.16224454
0001f0 33 24 88 3b 01 ff 0c 3e 89 ac c3 bd fd d8 a0 be
       0.004154706 0.13769151 -0.09554393 -0.3141555

fc3.weight f4 [1, 128]
000000 46 eb 8c 3e f7 2e 44 bc 2e 1c 3e 3e b8 f6 49 3e
       0.2752325 -0.011974088 0.18565437 0.19723022
000010 64 db a5 3d 0e a5 30 bd cc f0 5d bd 4d 5e 5e bd
       0.08098486 -0.04312616 -0.05418472 -0.05428915
000020 28 d6 12 be 92 f8 87 3d 7b a1 fb bd d9 25 bb 3e
       -0.14339507 0.06639208 -0.12286659 0.36552313
000030 d9 4a 3d bd cf e5 34 bd f6 4a d6 3c 69 f8 0c 3e
       -0.04621396 -0.044164475 0.026158791 0.13766636
000040 86 5f c5 3e fc 6d 32 bd 0e 3a 50 bd 68 82 98 3d
       0.3854944 -0.04356192 -0.050836615 0.07446748
000050 d7 3b 7a bd 09 d6 b9 be d1 83 ab be 07 49 42 bc
       -0.061092224 -0.36296108 -0.33499005 -0.011858231
000060 e0 38 6f 3e 4d 9a ca 3d b0 da 13 bd 80 f8 17 be
       0.2336154 0.09892712 -0.03609723 -0.14840889
000070 13 88 a9 3d 10 7d 03 3d 64 54 9e 3d a7 5c f1 bc
       0.08277907 0.03210169 0.0773094 -0.029463125
000080 2d 10 7f 3d 6d 57 8b 3d 6d 54 86 bd 1f 39 31 be
       0.062271286 0.068037845 -0.06559072 -0.17306946
000090 38 a5 67 3d 46 e3 ee 3d 51 06 f2 3c 09 e0 01 be
       0.05655405 0.11664443 0.029544028 -0.12683119
0000a0 1d c4 be bd ea a5 19 3e 1b a4 ed bd 3a f7 cf 3c
       -0.093147494 0.15004697 -0.11603566 0.025386441
0000b0 aa bf bc 3d 33 9f 04 be 91 6c 28 3d 4b 93 fc 3d
       0.092162445 -0.12951355 0.041119162 0.123327814
0000c0 0f 74 09 be 40 e6 ab bd e4 7c 52 bd 2b 30 2d 3d
       -0.13423179 -0.08393526 -0.051388636 0.042282265
0000d0 d6 c3 ba 3d d6 80 53 be f1 f1 05 be 45 9a 20 3d
       0.09119384 -0.20654616 -0.13080575 0.039209623
0000e0 5a 7a 82 be 46 e4 c9 3c bc 96 34 3d 5d 44 0d 3e
       -0.25483972 0.024644982 0.044089064 0.1379561
0000f0 5b 19 c5 3c da 87 e9 be 91 2b c0 bd 6c c0 a9 3d
       0.024059942 -0.4561146 -0.0938331 0.08288655
000100 65 ca af bd e1 c4 2c bd 04 3d 2c 3d 3d eb 16 3d
       -0.085835256 -0.042179946 0.042050377 0.036845434
000110 0d 27 ed 3c 44 e9 85 3d e7 d0 17 3d 63 d4 08 be
       0.028949285 0.065386325 0.03706446 -0.13362269
000120 85 3b 27 3e fc 32 9d bd 19 8a 0b bd 2f ce 68 be
       0.16331299 -0.0767574 -0.034067247 -0.22734903
000130 7c e6 8d 3e 97 ad e7 bd a6 cd 11 3e 6e 9c 4f be
       0.27714908 -0.113124065 0.14238605 -0.20274517
000140 40 2e cd bd 55 b9 3e be 23 fd e0 3c 9e 16 fd 3d
       -0.10018587 -0.18625386 0.027464455 0.123578295
000150 98 e3 9e 3d 33 64 29 3f 32 6b 4b bd 81 4e 8b be
       0.07758254 0.66168517 -0.049662776 -0.2720833
000160 d5 cf af bc 7e ac ce 3c 46 50 8f be 65 21 97 3c
       -0.021461407 0.025228735 -0.2799093 0.018448541
000170 12 3c d7 3d aa 98 ed 3c 20 08 40 bd 3e e7 2a 3e
       0.105095044 0.02900346 -0.04688275 0.16689774
000180 53 e9 de bd 16 11 bf bd 43 8d 90 bd 33 8b 9e 3d
       -0.10884347 -0.09329431 -0.070581935 0.07741394
000190 b8 c9 54 3e fd 88 e1 bd b7 3d 01 be 53 de 1c 3d
       0.20780075 -0.110124566 -0.12621199 0.038297962
0001a0 60 05 94 bd 28 a2 a9 3d 41 ba e8 3e ef c8 00 bd
       -0.07227588 0.08282882 0.454546 -0.031441625
0001b0 94 92 65 bd 09 25 11 3f d0 b6 2f bd e0 20 e5 bd
       -0.05604799 0.56697136 -0.042898953 -0.11187911
0001c0 03 8a 99 3d 44 5c 0b be 59 48 04 3e 19 10 a3 3d
       0.07497027 -0.13609415 0.12918223 0.07962055
0001d0 3d 6c a3 be 5c 12 ca 3d 35 39 15 3d de a1 47 3d
       -0.31918517 0.09866783 0.03643151 0.048738353
0001e0 dc bc 65 3d 8a 1d 9a 3d 37 9e 94 3d d2 e7 d0 3c
       0.056088313 0.075251654 0.072567396 0.025501166
0001f0 1c 51 ac 3d d5 2a 7f bd ad 1b 07 3e 80 99 bd 3d
       0.08413908 -0.062296707 0.13194151 0.092577934
